{"format": "layers-model", "generatedBy": "keras v2.13.1", "convertedBy": "TensorFlow.js Converter v4.9.0", "modelTopology": {"keras_version": "2.13.1", "backend": "tensorflow", "model_config": {"class_name": "Functional", "config": {"name": "model", "trainable": false, "layers": [{"class_name": "InputLayer", "config": {"batch_input_shape": [null, 256, 256, 3], "dtype": "float32", "sparse": false, "ragged": false, "name": "input_1"}, "name": "input_1", "inbound_nodes": []}, {"class_name": "ZeroPadding2D", "config": {"name": "zero_padding2d", "trainable": false, "dtype": "float32", "padding": [[3, 3], [3, 3]], "data_format": "channels_last"}, "name": "zero_padding2d", "inbound_nodes": [[["input_1", 0, 0, {}]]]}, {"class_name": "Conv2D", "config": {"name": "conv1/conv", "trainable": false, "dtype": "float32", "filters": 64, "kernel_size": [7, 7], "strides": [2, 2], "padding": "valid", "data_format": "channels_last", "dilation_rate": [1, 1], "groups": 1, "activation": "linear", "use_bias": false, "kernel_initializer": {"module": "keras.initializers", "class_name": "GlorotUniform", "config": {"seed": null}, "registered_name": null}, "bias_initializer": {"module": "keras.initializers", "class_name": "Zeros", "config": {}, "registered_name": null}, "kernel_regularizer": null, "bias_regularizer": null, "activity_regularizer": null, "kernel_constraint": null, "bias_constraint": null}, "name": "conv1/conv", "inbound_nodes": [[["zero_padding2d", 0, 0, {}]]]}, {"class_name": "BatchNormalization", "config": {"name": "conv1/bn", "trainable": false, "dtype": "float32", "axis": [3], "momentum": 0.99, "epsilon": 1.001e-05, "center": true, "scale": true, "beta_initializer": {"module": "keras.initializers", "class_name": "Zeros", "config": {}, "registered_name": null}, "gamma_initializer": {"module": "keras.initializers", "class_name": "Ones", "config": {}, "registered_name": null}, "moving_mean_initializer": {"module": "keras.initializers", "class_name": "Zeros", "config": {}, "registered_name": null}, "moving_variance_initializer": {"module": "keras.initializers", "class_name": "Ones", "config": {}, "registered_name": null}, "beta_regularizer": null, "gamma_regularizer": null, "beta_constraint": null, "gamma_constraint": null}, "name": "conv1/bn", "inbound_nodes": [[["conv1/conv", 0, 0, {}]]]}, {"class_name": "Activation", "config": {"name": "conv1/relu", "trainable": false, "dtype": "float32", "activation": "relu"}, "name": "conv1/relu", "inbound_nodes": [[["conv1/bn", 0, 0, {}]]]}, {"class_name": "ZeroPadding2D", "config": {"name": "zero_padding2d_1", "trainable": false, "dtype": "float32", "padding": [[1, 1], [1, 1]], "data_format": "channels_last"}, "name": "zero_padding2d_1", "inbound_nodes": [[["conv1/relu", 0, 0, {}]]]}, {"class_name": "MaxPooling2D", "config": {"name": "pool1", "trainable": false, "dtype": "float32", "pool_size": [3, 3], "padding": "valid", "strides": [2, 2], "data_format": "channels_last"}, "name": "pool1", "inbound_nodes": [[["zero_padding2d_1", 0, 0, {}]]]}, {"class_name": "BatchNormalization", "config": {"name": "conv2_block1_0_bn", "trainable": false, "dtype": "float32", "axis": [3], "momentum": 0.99, "epsilon": 1.001e-05, "center": true, "scale": true, "beta_initializer": {"module": "keras.initializers", "class_name": "Zeros", "config": {}, "registered_name": null}, "gamma_initializer": {"module": "keras.initializers", "class_name": "Ones", "config": {}, "registered_name": null}, "moving_mean_initializer": {"module": "keras.initializers", "class_name": "Zeros", "config": {}, "registered_name": null}, "moving_variance_initializer": {"module": "keras.initializers", "class_name": "Ones", "config": {}, "registered_name": null}, "beta_regularizer": null, "gamma_regularizer": null, "beta_constraint": null, "gamma_constraint": null}, "name": "conv2_block1_0_bn", "inbound_nodes": [[["pool1", 0, 0, {}]]]}, {"class_name": "Activation", "config": {"name": "conv2_block1_0_relu", "trainable": false, "dtype": "float32", "activation": "relu"}, "name": "conv2_block1_0_relu", "inbound_nodes": [[["conv2_block1_0_bn", 0, 0, {}]]]}, {"class_name": "Conv2D", "config": {"name": "conv2_block1_1_conv", "trainable": false, "dtype": "float32", "filters": 128, "kernel_size": [1, 1], "strides": [1, 1], "padding": "valid", "data_format": "channels_last", "dilation_rate": [1, 1], "groups": 1, "activation": "linear", "use_bias": false, "kernel_initializer": {"module": "keras.initializers", "class_name": "GlorotUniform", "config": {"seed": null}, "registered_name": null}, "bias_initializer": {"module": "keras.initializers", "class_name": "Zeros", "config": {}, "registered_name": null}, "kernel_regularizer": null, "bias_regularizer": null, "activity_regularizer": null, "kernel_constraint": null, "bias_constraint": null}, "name": "conv2_block1_1_conv", "inbound_nodes": [[["conv2_block1_0_relu", 0, 0, {}]]]}, {"class_name": "BatchNormalization", "config": {"name": "conv2_block1_1_bn", "trainable": false, "dtype": "float32", "axis": [3], "momentum": 0.99, "epsilon": 1.001e-05, "center": true, "scale": true, "beta_initializer": {"module": "keras.initializers", "class_name": "Zeros", "config": {}, "registered_name": null}, "gamma_initializer": {"module": "keras.initializers", "class_name": "Ones", "config": {}, "registered_name": null}, "moving_mean_initializer": {"module": "keras.initializers", "class_name": "Zeros", "config": {}, "registered_name": null}, "moving_variance_initializer": {"module": "keras.initializers", "class_name": "Ones", "config": {}, "registered_name": null}, "beta_regularizer": null, "gamma_regularizer": null, "beta_constraint": null, "gamma_constraint": null}, "name": "conv2_block1_1_bn", "inbound_nodes": [[["conv2_block1_1_conv", 0, 0, {}]]]}, {"class_name": "Activation", "config": {"name": "conv2_block1_1_relu", "trainable": false, "dtype": "float32", "activation": "relu"}, "name": "conv2_block1_1_relu", "inbound_nodes": [[["conv2_block1_1_bn", 0, 0, {}]]]}, {"class_name": "Conv2D", "config": {"name": "conv2_block1_2_conv", "trainable": false, "dtype": "float32", "filters": 32, "kernel_size": [3, 3], "strides": [1, 1], "padding": "same", "data_format": "channels_last", "dilation_rate": [1, 1], "groups": 1, "activation": "linear", "use_bias": false, "kernel_initializer": {"module": "keras.initializers", "class_name": "GlorotUniform", "config": {"seed": null}, "registered_name": null}, "bias_initializer": {"module": "keras.initializers", "class_name": "Zeros", "config": {}, "registered_name": null}, "kernel_regularizer": null, "bias_regularizer": null, "activity_regularizer": null, "kernel_constraint": null, "bias_constraint": null}, "name": "conv2_block1_2_conv", "inbound_nodes": [[["conv2_block1_1_relu", 0, 0, {}]]]}, {"class_name": "Concatenate", "config": {"name": "conv2_block1_concat", "trainable": false, "dtype": "float32", "axis": 3}, "name": "conv2_block1_concat", "inbound_nodes": [[["pool1", 0, 0, {}], ["conv2_block1_2_conv", 0, 0, {}]]]}, {"class_name": "BatchNormalization", "config": {"name": "conv2_block2_0_bn", "trainable": false, "dtype": "float32", "axis": [3], "momentum": 0.99, "epsilon": 1.001e-05, "center": true, "scale": true, "beta_initializer": {"module": "keras.initializers", "class_name": "Zeros", "config": {}, "registered_name": null}, "gamma_initializer": {"module": "keras.initializers", "class_name": "Ones", "config": {}, "registered_name": null}, "moving_mean_initializer": {"module": "keras.initializers", "class_name": "Zeros", "config": {}, "registered_name": null}, "moving_variance_initializer": {"module": "keras.initializers", "class_name": "Ones", "config": {}, "registered_name": null}, "beta_regularizer": null, "gamma_regularizer": null, "beta_constraint": null, "gamma_constraint": null}, "name": "conv2_block2_0_bn", "inbound_nodes": [[["conv2_block1_concat", 0, 0, {}]]]}, {"class_name": "Activation", "config": {"name": "conv2_block2_0_relu", "trainable": false, "dtype": "float32", "activation": "relu"}, "name": "conv2_block2_0_relu", "inbound_nodes": [[["conv2_block2_0_bn", 0, 0, {}]]]}, {"class_name": "Conv2D", "config": {"name": "conv2_block2_1_conv", "trainable": false, "dtype": "float32", "filters": 128, "kernel_size": [1, 1], "strides": [1, 1], "padding": "valid", "data_format": "channels_last", "dilation_rate": [1, 1], "groups": 1, "activation": "linear", "use_bias": false, "kernel_initializer": {"module": "keras.initializers", "class_name": "GlorotUniform", "config": {"seed": null}, "registered_name": null}, "bias_initializer": {"module": "keras.initializers", "class_name": "Zeros", "config": {}, "registered_name": null}, "kernel_regularizer": null, "bias_regularizer": null, "activity_regularizer": null, "kernel_constraint": null, "bias_constraint": null}, "name": "conv2_block2_1_conv", "inbound_nodes": [[["conv2_block2_0_relu", 0, 0, {}]]]}, {"class_name": "BatchNormalization", "config": {"name": "conv2_block2_1_bn", "trainable": false, "dtype": "float32", "axis": [3], "momentum": 0.99, "epsilon": 1.001e-05, "center": true, "scale": true, "beta_initializer": {"module": "keras.initializers", "class_name": "Zeros", "config": {}, "registered_name": null}, "gamma_initializer": {"module": "keras.initializers", "class_name": "Ones", "config": {}, "registered_name": null}, "moving_mean_initializer": {"module": "keras.initializers", "class_name": "Zeros", "config": {}, "registered_name": null}, "moving_variance_initializer": {"module": "keras.initializers", "class_name": "Ones", "config": {}, "registered_name": null}, "beta_regularizer": null, "gamma_regularizer": null, "beta_constraint": null, "gamma_constraint": null}, "name": "conv2_block2_1_bn", "inbound_nodes": [[["conv2_block2_1_conv", 0, 0, {}]]]}, {"class_name": "Activation", "config": {"name": "conv2_block2_1_relu", "trainable": false, "dtype": "float32", "activation": "relu"}, "name": "conv2_block2_1_relu", "inbound_nodes": [[["conv2_block2_1_bn", 0, 0, {}]]]}, {"class_name": "Conv2D", "config": {"name": "conv2_block2_2_conv", "trainable": false, "dtype": "float32", "filters": 32, "kernel_size": [3, 3], "strides": [1, 1], "padding": "same", "data_format": "channels_last", "dilation_rate": [1, 1], "groups": 1, "activation": "linear", "use_bias": false, "kernel_initializer": {"module": "keras.initializers", "class_name": "GlorotUniform", "config": {"seed": null}, "registered_name": null}, "bias_initializer": {"module": "keras.initializers", "class_name": "Zeros", "config": {}, "registered_name": null}, "kernel_regularizer": null, "bias_regularizer": null, "activity_regularizer": null, "kernel_constraint": null, "bias_constraint": null}, "name": "conv2_block2_2_conv", "inbound_nodes": [[["conv2_block2_1_relu", 0, 0, {}]]]}, {"class_name": "Concatenate", "config": {"name": "conv2_block2_concat", "trainable": false, "dtype": "float32", "axis": 3}, "name": "conv2_block2_concat", "inbound_nodes": [[["conv2_block1_concat", 0, 0, {}], ["conv2_block2_2_conv", 0, 0, {}]]]}, {"class_name": "BatchNormalization", "config": {"name": "conv2_block3_0_bn", "trainable": false, "dtype": "float32", "axis": [3], "momentum": 0.99, "epsilon": 1.001e-05, "center": true, "scale": true, "beta_initializer": {"module": "keras.initializers", "class_name": "Zeros", "config": {}, "registered_name": null}, "gamma_initializer": {"module": "keras.initializers", "class_name": "Ones", "config": {}, "registered_name": null}, "moving_mean_initializer": {"module": "keras.initializers", "class_name": "Zeros", "config": {}, "registered_name": null}, "moving_variance_initializer": {"module": "keras.initializers", "class_name": "Ones", "config": {}, "registered_name": null}, "beta_regularizer": null, "gamma_regularizer": null, "beta_constraint": null, "gamma_constraint": null}, "name": "conv2_block3_0_bn", "inbound_nodes": [[["conv2_block2_concat", 0, 0, {}]]]}, {"class_name": "Activation", "config": {"name": "conv2_block3_0_relu", "trainable": false, "dtype": "float32", "activation": "relu"}, "name": "conv2_block3_0_relu", "inbound_nodes": [[["conv2_block3_0_bn", 0, 0, {}]]]}, {"class_name": "Conv2D", "config": {"name": "conv2_block3_1_conv", "trainable": false, "dtype": "float32", "filters": 128, "kernel_size": [1, 1], "strides": [1, 1], "padding": "valid", "data_format": "channels_last", "dilation_rate": [1, 1], "groups": 1, "activation": "linear", "use_bias": false, "kernel_initializer": {"module": "keras.initializers", "class_name": "GlorotUniform", "config": {"seed": null}, "registered_name": null}, "bias_initializer": {"module": "keras.initializers", "class_name": "Zeros", "config": {}, "registered_name": null}, "kernel_regularizer": null, "bias_regularizer": null, "activity_regularizer": null, "kernel_constraint": null, "bias_constraint": null}, "name": "conv2_block3_1_conv", "inbound_nodes": [[["conv2_block3_0_relu", 0, 0, {}]]]}, {"class_name": "BatchNormalization", "config": {"name": "conv2_block3_1_bn", "trainable": false, "dtype": "float32", "axis": [3], "momentum": 0.99, "epsilon": 1.001e-05, "center": true, "scale": true, "beta_initializer": {"module": "keras.initializers", "class_name": "Zeros", "config": {}, "registered_name": null}, "gamma_initializer": {"module": "keras.initializers", "class_name": "Ones", "config": {}, "registered_name": null}, "moving_mean_initializer": {"module": "keras.initializers", "class_name": "Zeros", "config": {}, "registered_name": null}, "moving_variance_initializer": {"module": "keras.initializers", "class_name": "Ones", "config": {}, "registered_name": null}, "beta_regularizer": null, "gamma_regularizer": null, "beta_constraint": null, "gamma_constraint": null}, "name": "conv2_block3_1_bn", "inbound_nodes": [[["conv2_block3_1_conv", 0, 0, {}]]]}, {"class_name": "Activation", "config": {"name": "conv2_block3_1_relu", "trainable": false, "dtype": "float32", "activation": "relu"}, "name": "conv2_block3_1_relu", "inbound_nodes": [[["conv2_block3_1_bn", 0, 0, {}]]]}, {"class_name": "Conv2D", "config": {"name": "conv2_block3_2_conv", "trainable": false, "dtype": "float32", "filters": 32, "kernel_size": [3, 3], "strides": [1, 1], "padding": "same", "data_format": "channels_last", "dilation_rate": [1, 1], "groups": 1, "activation": "linear", "use_bias": false, "kernel_initializer": {"module": "keras.initializers", "class_name": "GlorotUniform", "config": {"seed": null}, "registered_name": null}, "bias_initializer": {"module": "keras.initializers", "class_name": "Zeros", "config": {}, "registered_name": null}, "kernel_regularizer": null, "bias_regularizer": null, "activity_regularizer": null, "kernel_constraint": null, "bias_constraint": null}, "name": "conv2_block3_2_conv", "inbound_nodes": [[["conv2_block3_1_relu", 0, 0, {}]]]}, {"class_name": "Concatenate", "config": {"name": "conv2_block3_concat", "trainable": false, "dtype": "float32", "axis": 3}, "name": "conv2_block3_concat", "inbound_nodes": [[["conv2_block2_concat", 0, 0, {}], ["conv2_block3_2_conv", 0, 0, {}]]]}, {"class_name": "BatchNormalization", "config": {"name": "conv2_block4_0_bn", "trainable": false, "dtype": "float32", "axis": [3], "momentum": 0.99, "epsilon": 1.001e-05, "center": true, "scale": true, "beta_initializer": {"module": "keras.initializers", "class_name": "Zeros", "config": {}, "registered_name": null}, "gamma_initializer": {"module": "keras.initializers", "class_name": "Ones", "config": {}, "registered_name": null}, "moving_mean_initializer": {"module": "keras.initializers", "class_name": "Zeros", "config": {}, "registered_name": null}, "moving_variance_initializer": {"module": "keras.initializers", "class_name": "Ones", "config": {}, "registered_name": null}, "beta_regularizer": null, "gamma_regularizer": null, "beta_constraint": null, "gamma_constraint": null}, "name": "conv2_block4_0_bn", "inbound_nodes": [[["conv2_block3_concat", 0, 0, {}]]]}, {"class_name": "Activation", "config": {"name": "conv2_block4_0_relu", "trainable": false, "dtype": "float32", "activation": "relu"}, "name": "conv2_block4_0_relu", "inbound_nodes": [[["conv2_block4_0_bn", 0, 0, {}]]]}, {"class_name": "Conv2D", "config": {"name": "conv2_block4_1_conv", "trainable": false, "dtype": "float32", "filters": 128, "kernel_size": [1, 1], "strides": [1, 1], "padding": "valid", "data_format": "channels_last", "dilation_rate": [1, 1], "groups": 1, "activation": "linear", "use_bias": false, "kernel_initializer": {"module": "keras.initializers", "class_name": "GlorotUniform", "config": {"seed": null}, "registered_name": null}, "bias_initializer": {"module": "keras.initializers", "class_name": "Zeros", "config": {}, "registered_name": null}, "kernel_regularizer": null, "bias_regularizer": null, "activity_regularizer": null, "kernel_constraint": null, "bias_constraint": null}, "name": "conv2_block4_1_conv", "inbound_nodes": [[["conv2_block4_0_relu", 0, 0, {}]]]}, {"class_name": "BatchNormalization", "config": {"name": "conv2_block4_1_bn", "trainable": false, "dtype": "float32", "axis": [3], "momentum": 0.99, "epsilon": 1.001e-05, "center": true, "scale": true, "beta_initializer": {"module": "keras.initializers", "class_name": "Zeros", "config": {}, "registered_name": null}, "gamma_initializer": {"module": "keras.initializers", "class_name": "Ones", "config": {}, "registered_name": null}, "moving_mean_initializer": {"module": "keras.initializers", "class_name": "Zeros", "config": {}, "registered_name": null}, "moving_variance_initializer": {"module": "keras.initializers", "class_name": "Ones", "config": {}, "registered_name": null}, "beta_regularizer": null, "gamma_regularizer": null, "beta_constraint": null, "gamma_constraint": null}, "name": "conv2_block4_1_bn", "inbound_nodes": [[["conv2_block4_1_conv", 0, 0, {}]]]}, {"class_name": "Activation", "config": {"name": "conv2_block4_1_relu", "trainable": false, "dtype": "float32", "activation": "relu"}, "name": "conv2_block4_1_relu", "inbound_nodes": [[["conv2_block4_1_bn", 0, 0, {}]]]}, {"class_name": "Conv2D", "config": {"name": "conv2_block4_2_conv", "trainable": false, "dtype": "float32", "filters": 32, "kernel_size": [3, 3], "strides": [1, 1], "padding": "same", "data_format": "channels_last", "dilation_rate": [1, 1], "groups": 1, "activation": "linear", "use_bias": false, "kernel_initializer": {"module": "keras.initializers", "class_name": "GlorotUniform", "config": {"seed": null}, "registered_name": null}, "bias_initializer": {"module": "keras.initializers", "class_name": "Zeros", "config": {}, "registered_name": null}, "kernel_regularizer": null, "bias_regularizer": null, "activity_regularizer": null, "kernel_constraint": null, "bias_constraint": null}, "name": "conv2_block4_2_conv", "inbound_nodes": [[["conv2_block4_1_relu", 0, 0, {}]]]}, {"class_name": "Concatenate", "config": {"name": "conv2_block4_concat", "trainable": false, "dtype": "float32", "axis": 3}, "name": "conv2_block4_concat", "inbound_nodes": [[["conv2_block3_concat", 0, 0, {}], ["conv2_block4_2_conv", 0, 0, {}]]]}, {"class_name": "BatchNormalization", "config": {"name": "conv2_block5_0_bn", "trainable": false, "dtype": "float32", "axis": [3], "momentum": 0.99, "epsilon": 1.001e-05, "center": true, "scale": true, "beta_initializer": {"module": "keras.initializers", "class_name": "Zeros", "config": {}, "registered_name": null}, "gamma_initializer": {"module": "keras.initializers", "class_name": "Ones", "config": {}, "registered_name": null}, "moving_mean_initializer": {"module": "keras.initializers", "class_name": "Zeros", "config": {}, "registered_name": null}, "moving_variance_initializer": {"module": "keras.initializers", "class_name": "Ones", "config": {}, "registered_name": null}, "beta_regularizer": null, "gamma_regularizer": null, "beta_constraint": null, "gamma_constraint": null}, "name": "conv2_block5_0_bn", "inbound_nodes": [[["conv2_block4_concat", 0, 0, {}]]]}, {"class_name": "Activation", "config": {"name": "conv2_block5_0_relu", "trainable": false, "dtype": "float32", "activation": "relu"}, "name": "conv2_block5_0_relu", "inbound_nodes": [[["conv2_block5_0_bn", 0, 0, {}]]]}, {"class_name": "Conv2D", "config": {"name": "conv2_block5_1_conv", "trainable": false, "dtype": "float32", "filters": 128, "kernel_size": [1, 1], "strides": [1, 1], "padding": "valid", "data_format": "channels_last", "dilation_rate": [1, 1], "groups": 1, "activation": "linear", "use_bias": false, "kernel_initializer": {"module": "keras.initializers", "class_name": "GlorotUniform", "config": {"seed": null}, "registered_name": null}, "bias_initializer": {"module": "keras.initializers", "class_name": "Zeros", "config": {}, "registered_name": null}, "kernel_regularizer": null, "bias_regularizer": null, "activity_regularizer": null, "kernel_constraint": null, "bias_constraint": null}, "name": "conv2_block5_1_conv", "inbound_nodes": [[["conv2_block5_0_relu", 0, 0, {}]]]}, {"class_name": "BatchNormalization", "config": {"name": "conv2_block5_1_bn", "trainable": false, "dtype": "float32", "axis": [3], "momentum": 0.99, "epsilon": 1.001e-05, "center": true, "scale": true, "beta_initializer": {"module": "keras.initializers", "class_name": "Zeros", "config": {}, "registered_name": null}, "gamma_initializer": {"module": "keras.initializers", "class_name": "Ones", "config": {}, "registered_name": null}, "moving_mean_initializer": {"module": "keras.initializers", "class_name": "Zeros", "config": {}, "registered_name": null}, "moving_variance_initializer": {"module": "keras.initializers", "class_name": "Ones", "config": {}, "registered_name": null}, "beta_regularizer": null, "gamma_regularizer": null, "beta_constraint": null, "gamma_constraint": null}, "name": "conv2_block5_1_bn", "inbound_nodes": [[["conv2_block5_1_conv", 0, 0, {}]]]}, {"class_name": "Activation", "config": {"name": "conv2_block5_1_relu", "trainable": false, "dtype": "float32", "activation": "relu"}, "name": "conv2_block5_1_relu", "inbound_nodes": [[["conv2_block5_1_bn", 0, 0, {}]]]}, {"class_name": "Conv2D", "config": {"name": "conv2_block5_2_conv", "trainable": false, "dtype": "float32", "filters": 32, "kernel_size": [3, 3], "strides": [1, 1], "padding": "same", "data_format": "channels_last", "dilation_rate": [1, 1], "groups": 1, "activation": "linear", "use_bias": false, "kernel_initializer": {"module": "keras.initializers", "class_name": "GlorotUniform", "config": {"seed": null}, "registered_name": null}, "bias_initializer": {"module": "keras.initializers", "class_name": "Zeros", "config": {}, "registered_name": null}, "kernel_regularizer": null, "bias_regularizer": null, "activity_regularizer": null, "kernel_constraint": null, "bias_constraint": null}, "name": "conv2_block5_2_conv", "inbound_nodes": [[["conv2_block5_1_relu", 0, 0, {}]]]}, {"class_name": "Concatenate", "config": {"name": "conv2_block5_concat", "trainable": false, "dtype": "float32", "axis": 3}, "name": "conv2_block5_concat", "inbound_nodes": [[["conv2_block4_concat", 0, 0, {}], ["conv2_block5_2_conv", 0, 0, {}]]]}, {"class_name": "BatchNormalization", "config": {"name": "conv2_block6_0_bn", "trainable": false, "dtype": "float32", "axis": [3], "momentum": 0.99, "epsilon": 1.001e-05, "center": true, "scale": true, "beta_initializer": {"module": "keras.initializers", "class_name": "Zeros", "config": {}, "registered_name": null}, "gamma_initializer": {"module": "keras.initializers", "class_name": "Ones", "config": {}, "registered_name": null}, "moving_mean_initializer": {"module": "keras.initializers", "class_name": "Zeros", "config": {}, "registered_name": null}, "moving_variance_initializer": {"module": "keras.initializers", "class_name": "Ones", "config": {}, "registered_name": null}, "beta_regularizer": null, "gamma_regularizer": null, "beta_constraint": null, "gamma_constraint": null}, "name": "conv2_block6_0_bn", "inbound_nodes": [[["conv2_block5_concat", 0, 0, {}]]]}, {"class_name": "Activation", "config": {"name": "conv2_block6_0_relu", "trainable": false, "dtype": "float32", "activation": "relu"}, "name": "conv2_block6_0_relu", "inbound_nodes": [[["conv2_block6_0_bn", 0, 0, {}]]]}, {"class_name": "Conv2D", "config": {"name": "conv2_block6_1_conv", "trainable": false, "dtype": "float32", "filters": 128, "kernel_size": [1, 1], "strides": [1, 1], "padding": "valid", "data_format": "channels_last", "dilation_rate": [1, 1], "groups": 1, "activation": "linear", "use_bias": false, "kernel_initializer": {"module": "keras.initializers", "class_name": "GlorotUniform", "config": {"seed": null}, "registered_name": null}, "bias_initializer": {"module": "keras.initializers", "class_name": "Zeros", "config": {}, "registered_name": null}, "kernel_regularizer": null, "bias_regularizer": null, "activity_regularizer": null, "kernel_constraint": null, "bias_constraint": null}, "name": "conv2_block6_1_conv", "inbound_nodes": [[["conv2_block6_0_relu", 0, 0, {}]]]}, {"class_name": "BatchNormalization", "config": {"name": "conv2_block6_1_bn", "trainable": false, "dtype": "float32", "axis": [3], "momentum": 0.99, "epsilon": 1.001e-05, "center": true, "scale": true, "beta_initializer": {"module": "keras.initializers", "class_name": "Zeros", "config": {}, "registered_name": null}, "gamma_initializer": {"module": "keras.initializers", "class_name": "Ones", "config": {}, "registered_name": null}, "moving_mean_initializer": {"module": "keras.initializers", "class_name": "Zeros", "config": {}, "registered_name": null}, "moving_variance_initializer": {"module": "keras.initializers", "class_name": "Ones", "config": {}, "registered_name": null}, "beta_regularizer": null, "gamma_regularizer": null, "beta_constraint": null, "gamma_constraint": null}, "name": "conv2_block6_1_bn", "inbound_nodes": [[["conv2_block6_1_conv", 0, 0, {}]]]}, {"class_name": "Activation", "config": {"name": "conv2_block6_1_relu", "trainable": false, "dtype": "float32", "activation": "relu"}, "name": "conv2_block6_1_relu", "inbound_nodes": [[["conv2_block6_1_bn", 0, 0, {}]]]}, {"class_name": "Conv2D", "config": {"name": "conv2_block6_2_conv", "trainable": false, "dtype": "float32", "filters": 32, "kernel_size": [3, 3], "strides": [1, 1], "padding": "same", "data_format": "channels_last", "dilation_rate": [1, 1], "groups": 1, "activation": "linear", "use_bias": false, "kernel_initializer": {"module": "keras.initializers", "class_name": "GlorotUniform", "config": {"seed": null}, "registered_name": null}, "bias_initializer": {"module": "keras.initializers", "class_name": "Zeros", "config": {}, "registered_name": null}, "kernel_regularizer": null, "bias_regularizer": null, "activity_regularizer": null, "kernel_constraint": null, "bias_constraint": null}, "name": "conv2_block6_2_conv", "inbound_nodes": [[["conv2_block6_1_relu", 0, 0, {}]]]}, {"class_name": "Concatenate", "config": {"name": "conv2_block6_concat", "trainable": false, "dtype": "float32", "axis": 3}, "name": "conv2_block6_concat", "inbound_nodes": [[["conv2_block5_concat", 0, 0, {}], ["conv2_block6_2_conv", 0, 0, {}]]]}, {"class_name": "BatchNormalization", "config": {"name": "pool2_bn", "trainable": false, "dtype": "float32", "axis": [3], "momentum": 0.99, "epsilon": 1.001e-05, "center": true, "scale": true, "beta_initializer": {"module": "keras.initializers", "class_name": "Zeros", "config": {}, "registered_name": null}, "gamma_initializer": {"module": "keras.initializers", "class_name": "Ones", "config": {}, "registered_name": null}, "moving_mean_initializer": {"module": "keras.initializers", "class_name": "Zeros", "config": {}, "registered_name": null}, "moving_variance_initializer": {"module": "keras.initializers", "class_name": "Ones", "config": {}, "registered_name": null}, "beta_regularizer": null, "gamma_regularizer": null, "beta_constraint": null, "gamma_constraint": null}, "name": "pool2_bn", "inbound_nodes": [[["conv2_block6_concat", 0, 0, {}]]]}, {"class_name": "Activation", "config": {"name": "pool2_relu", "trainable": false, "dtype": "float32", "activation": "relu"}, "name": "pool2_relu", "inbound_nodes": [[["pool2_bn", 0, 0, {}]]]}, {"class_name": "Conv2D", "config": {"name": "pool2_conv", "trainable": false, "dtype": "float32", "filters": 128, "kernel_size": [1, 1], "strides": [1, 1], "padding": "valid", "data_format": "channels_last", "dilation_rate": [1, 1], "groups": 1, "activation": "linear", "use_bias": false, "kernel_initializer": {"module": "keras.initializers", "class_name": "GlorotUniform", "config": {"seed": null}, "registered_name": null}, "bias_initializer": {"module": "keras.initializers", "class_name": "Zeros", "config": {}, "registered_name": null}, "kernel_regularizer": null, "bias_regularizer": null, "activity_regularizer": null, "kernel_constraint": null, "bias_constraint": null}, "name": "pool2_conv", "inbound_nodes": [[["pool2_relu", 0, 0, {}]]]}, {"class_name": "AveragePooling2D", "config": {"name": "pool2_pool", "trainable": false, "dtype": "float32", "pool_size": [2, 2], "padding": "valid", "strides": [2, 2], "data_format": "channels_last"}, "name": "pool2_pool", "inbound_nodes": [[["pool2_conv", 0, 0, {}]]]}, {"class_name": "BatchNormalization", "config": {"name": "conv3_block1_0_bn", "trainable": false, "dtype": "float32", "axis": [3], "momentum": 0.99, "epsilon": 1.001e-05, "center": true, "scale": true, "beta_initializer": {"module": "keras.initializers", "class_name": "Zeros", "config": {}, "registered_name": null}, "gamma_initializer": {"module": "keras.initializers", "class_name": "Ones", "config": {}, "registered_name": null}, "moving_mean_initializer": {"module": "keras.initializers", "class_name": "Zeros", "config": {}, "registered_name": null}, "moving_variance_initializer": {"module": "keras.initializers", "class_name": "Ones", "config": {}, "registered_name": null}, "beta_regularizer": null, "gamma_regularizer": null, "beta_constraint": null, "gamma_constraint": null}, "name": "conv3_block1_0_bn", "inbound_nodes": [[["pool2_pool", 0, 0, {}]]]}, {"class_name": "Activation", "config": {"name": "conv3_block1_0_relu", "trainable": false, "dtype": "float32", "activation": "relu"}, "name": "conv3_block1_0_relu", "inbound_nodes": [[["conv3_block1_0_bn", 0, 0, {}]]]}, {"class_name": "Conv2D", "config": {"name": "conv3_block1_1_conv", "trainable": false, "dtype": "float32", "filters": 128, "kernel_size": [1, 1], "strides": [1, 1], "padding": "valid", "data_format": "channels_last", "dilation_rate": [1, 1], "groups": 1, "activation": "linear", "use_bias": false, "kernel_initializer": {"module": "keras.initializers", "class_name": "GlorotUniform", "config": {"seed": null}, "registered_name": null}, "bias_initializer": {"module": "keras.initializers", "class_name": "Zeros", "config": {}, "registered_name": null}, "kernel_regularizer": null, "bias_regularizer": null, "activity_regularizer": null, "kernel_constraint": null, "bias_constraint": null}, "name": "conv3_block1_1_conv", "inbound_nodes": [[["conv3_block1_0_relu", 0, 0, {}]]]}, {"class_name": "BatchNormalization", "config": {"name": "conv3_block1_1_bn", "trainable": false, "dtype": "float32", "axis": [3], "momentum": 0.99, "epsilon": 1.001e-05, "center": true, "scale": true, "beta_initializer": {"module": "keras.initializers", "class_name": "Zeros", "config": {}, "registered_name": null}, "gamma_initializer": {"module": "keras.initializers", "class_name": "Ones", "config": {}, "registered_name": null}, "moving_mean_initializer": {"module": "keras.initializers", "class_name": "Zeros", "config": {}, "registered_name": null}, "moving_variance_initializer": {"module": "keras.initializers", "class_name": "Ones", "config": {}, "registered_name": null}, "beta_regularizer": null, "gamma_regularizer": null, "beta_constraint": null, "gamma_constraint": null}, "name": "conv3_block1_1_bn", "inbound_nodes": [[["conv3_block1_1_conv", 0, 0, {}]]]}, {"class_name": "Activation", "config": {"name": "conv3_block1_1_relu", "trainable": false, "dtype": "float32", "activation": "relu"}, "name": "conv3_block1_1_relu", "inbound_nodes": [[["conv3_block1_1_bn", 0, 0, {}]]]}, {"class_name": "Conv2D", "config": {"name": "conv3_block1_2_conv", "trainable": false, "dtype": "float32", "filters": 32, "kernel_size": [3, 3], "strides": [1, 1], "padding": "same", "data_format": "channels_last", "dilation_rate": [1, 1], "groups": 1, "activation": "linear", "use_bias": false, "kernel_initializer": {"module": "keras.initializers", "class_name": "GlorotUniform", "config": {"seed": null}, "registered_name": null}, "bias_initializer": {"module": "keras.initializers", "class_name": "Zeros", "config": {}, "registered_name": null}, "kernel_regularizer": null, "bias_regularizer": null, "activity_regularizer": null, "kernel_constraint": null, "bias_constraint": null}, "name": "conv3_block1_2_conv", "inbound_nodes": [[["conv3_block1_1_relu", 0, 0, {}]]]}, {"class_name": "Concatenate", "config": {"name": "conv3_block1_concat", "trainable": false, "dtype": "float32", "axis": 3}, "name": "conv3_block1_concat", "inbound_nodes": [[["pool2_pool", 0, 0, {}], ["conv3_block1_2_conv", 0, 0, {}]]]}, {"class_name": "BatchNormalization", "config": {"name": "conv3_block2_0_bn", "trainable": false, "dtype": "float32", "axis": [3], "momentum": 0.99, "epsilon": 1.001e-05, "center": true, "scale": true, "beta_initializer": {"module": "keras.initializers", "class_name": "Zeros", "config": {}, "registered_name": null}, "gamma_initializer": {"module": "keras.initializers", "class_name": "Ones", "config": {}, "registered_name": null}, "moving_mean_initializer": {"module": "keras.initializers", "class_name": "Zeros", "config": {}, "registered_name": null}, "moving_variance_initializer": {"module": "keras.initializers", "class_name": "Ones", "config": {}, "registered_name": null}, "beta_regularizer": null, "gamma_regularizer": null, "beta_constraint": null, "gamma_constraint": null}, "name": "conv3_block2_0_bn", "inbound_nodes": [[["conv3_block1_concat", 0, 0, {}]]]}, {"class_name": "Activation", "config": {"name": "conv3_block2_0_relu", "trainable": false, "dtype": "float32", "activation": "relu"}, "name": "conv3_block2_0_relu", "inbound_nodes": [[["conv3_block2_0_bn", 0, 0, {}]]]}, {"class_name": "Conv2D", "config": {"name": "conv3_block2_1_conv", "trainable": false, "dtype": "float32", "filters": 128, "kernel_size": [1, 1], "strides": [1, 1], "padding": "valid", "data_format": "channels_last", "dilation_rate": [1, 1], "groups": 1, "activation": "linear", "use_bias": false, "kernel_initializer": {"module": "keras.initializers", "class_name": "GlorotUniform", "config": {"seed": null}, "registered_name": null}, "bias_initializer": {"module": "keras.initializers", "class_name": "Zeros", "config": {}, "registered_name": null}, "kernel_regularizer": null, "bias_regularizer": null, "activity_regularizer": null, "kernel_constraint": null, "bias_constraint": null}, "name": "conv3_block2_1_conv", "inbound_nodes": [[["conv3_block2_0_relu", 0, 0, {}]]]}, {"class_name": "BatchNormalization", "config": {"name": "conv3_block2_1_bn", "trainable": false, "dtype": "float32", "axis": [3], "momentum": 0.99, "epsilon": 1.001e-05, "center": true, "scale": true, "beta_initializer": {"module": "keras.initializers", "class_name": "Zeros", "config": {}, "registered_name": null}, "gamma_initializer": {"module": "keras.initializers", "class_name": "Ones", "config": {}, "registered_name": null}, "moving_mean_initializer": {"module": "keras.initializers", "class_name": "Zeros", "config": {}, "registered_name": null}, "moving_variance_initializer": {"module": "keras.initializers", "class_name": "Ones", "config": {}, "registered_name": null}, "beta_regularizer": null, "gamma_regularizer": null, "beta_constraint": null, "gamma_constraint": null}, "name": "conv3_block2_1_bn", "inbound_nodes": [[["conv3_block2_1_conv", 0, 0, {}]]]}, {"class_name": "Activation", "config": {"name": "conv3_block2_1_relu", "trainable": false, "dtype": "float32", "activation": "relu"}, "name": "conv3_block2_1_relu", "inbound_nodes": [[["conv3_block2_1_bn", 0, 0, {}]]]}, {"class_name": "Conv2D", "config": {"name": "conv3_block2_2_conv", "trainable": false, "dtype": "float32", "filters": 32, "kernel_size": [3, 3], "strides": [1, 1], "padding": "same", "data_format": "channels_last", "dilation_rate": [1, 1], "groups": 1, "activation": "linear", "use_bias": false, "kernel_initializer": {"module": "keras.initializers", "class_name": "GlorotUniform", "config": {"seed": null}, "registered_name": null}, "bias_initializer": {"module": "keras.initializers", "class_name": "Zeros", "config": {}, "registered_name": null}, "kernel_regularizer": null, "bias_regularizer": null, "activity_regularizer": null, "kernel_constraint": null, "bias_constraint": null}, "name": "conv3_block2_2_conv", "inbound_nodes": [[["conv3_block2_1_relu", 0, 0, {}]]]}, {"class_name": "Concatenate", "config": {"name": "conv3_block2_concat", "trainable": false, "dtype": "float32", "axis": 3}, "name": "conv3_block2_concat", "inbound_nodes": [[["conv3_block1_concat", 0, 0, {}], ["conv3_block2_2_conv", 0, 0, {}]]]}, {"class_name": "BatchNormalization", "config": {"name": "conv3_block3_0_bn", "trainable": false, "dtype": "float32", "axis": [3], "momentum": 0.99, "epsilon": 1.001e-05, "center": true, "scale": true, "beta_initializer": {"module": "keras.initializers", "class_name": "Zeros", "config": {}, "registered_name": null}, "gamma_initializer": {"module": "keras.initializers", "class_name": "Ones", "config": {}, "registered_name": null}, "moving_mean_initializer": {"module": "keras.initializers", "class_name": "Zeros", "config": {}, "registered_name": null}, "moving_variance_initializer": {"module": "keras.initializers", "class_name": "Ones", "config": {}, "registered_name": null}, "beta_regularizer": null, "gamma_regularizer": null, "beta_constraint": null, "gamma_constraint": null}, "name": "conv3_block3_0_bn", "inbound_nodes": [[["conv3_block2_concat", 0, 0, {}]]]}, {"class_name": "Activation", "config": {"name": "conv3_block3_0_relu", "trainable": false, "dtype": "float32", "activation": "relu"}, "name": "conv3_block3_0_relu", "inbound_nodes": [[["conv3_block3_0_bn", 0, 0, {}]]]}, {"class_name": "Conv2D", "config": {"name": "conv3_block3_1_conv", "trainable": false, "dtype": "float32", "filters": 128, "kernel_size": [1, 1], "strides": [1, 1], "padding": "valid", "data_format": "channels_last", "dilation_rate": [1, 1], "groups": 1, "activation": "linear", "use_bias": false, "kernel_initializer": {"module": "keras.initializers", "class_name": "GlorotUniform", "config": {"seed": null}, "registered_name": null}, "bias_initializer": {"module": "keras.initializers", "class_name": "Zeros", "config": {}, "registered_name": null}, "kernel_regularizer": null, "bias_regularizer": null, "activity_regularizer": null, "kernel_constraint": null, "bias_constraint": null}, "name": "conv3_block3_1_conv", "inbound_nodes": [[["conv3_block3_0_relu", 0, 0, {}]]]}, {"class_name": "BatchNormalization", "config": {"name": "conv3_block3_1_bn", "trainable": false, "dtype": "float32", "axis": [3], "momentum": 0.99, "epsilon": 1.001e-05, "center": true, "scale": true, "beta_initializer": {"module": "keras.initializers", "class_name": "Zeros", "config": {}, "registered_name": null}, "gamma_initializer": {"module": "keras.initializers", "class_name": "Ones", "config": {}, "registered_name": null}, "moving_mean_initializer": {"module": "keras.initializers", "class_name": "Zeros", "config": {}, "registered_name": null}, "moving_variance_initializer": {"module": "keras.initializers", "class_name": "Ones", "config": {}, "registered_name": null}, "beta_regularizer": null, "gamma_regularizer": null, "beta_constraint": null, "gamma_constraint": null}, "name": "conv3_block3_1_bn", "inbound_nodes": [[["conv3_block3_1_conv", 0, 0, {}]]]}, {"class_name": "Activation", "config": {"name": "conv3_block3_1_relu", "trainable": false, "dtype": "float32", "activation": "relu"}, "name": "conv3_block3_1_relu", "inbound_nodes": [[["conv3_block3_1_bn", 0, 0, {}]]]}, {"class_name": "Conv2D", "config": {"name": "conv3_block3_2_conv", "trainable": false, "dtype": "float32", "filters": 32, "kernel_size": [3, 3], "strides": [1, 1], "padding": "same", "data_format": "channels_last", "dilation_rate": [1, 1], "groups": 1, "activation": "linear", "use_bias": false, "kernel_initializer": {"module": "keras.initializers", "class_name": "GlorotUniform", "config": {"seed": null}, "registered_name": null}, "bias_initializer": {"module": "keras.initializers", "class_name": "Zeros", "config": {}, "registered_name": null}, "kernel_regularizer": null, "bias_regularizer": null, "activity_regularizer": null, "kernel_constraint": null, "bias_constraint": null}, "name": "conv3_block3_2_conv", "inbound_nodes": [[["conv3_block3_1_relu", 0, 0, {}]]]}, {"class_name": "Concatenate", "config": {"name": "conv3_block3_concat", "trainable": false, "dtype": "float32", "axis": 3}, "name": "conv3_block3_concat", "inbound_nodes": [[["conv3_block2_concat", 0, 0, {}], ["conv3_block3_2_conv", 0, 0, {}]]]}, {"class_name": "BatchNormalization", "config": {"name": "conv3_block4_0_bn", "trainable": false, "dtype": "float32", "axis": [3], "momentum": 0.99, "epsilon": 1.001e-05, "center": true, "scale": true, "beta_initializer": {"module": "keras.initializers", "class_name": "Zeros", "config": {}, "registered_name": null}, "gamma_initializer": {"module": "keras.initializers", "class_name": "Ones", "config": {}, "registered_name": null}, "moving_mean_initializer": {"module": "keras.initializers", "class_name": "Zeros", "config": {}, "registered_name": null}, "moving_variance_initializer": {"module": "keras.initializers", "class_name": "Ones", "config": {}, "registered_name": null}, "beta_regularizer": null, "gamma_regularizer": null, "beta_constraint": null, "gamma_constraint": null}, "name": "conv3_block4_0_bn", "inbound_nodes": [[["conv3_block3_concat", 0, 0, {}]]]}, {"class_name": "Activation", "config": {"name": "conv3_block4_0_relu", "trainable": false, "dtype": "float32", "activation": "relu"}, "name": "conv3_block4_0_relu", "inbound_nodes": [[["conv3_block4_0_bn", 0, 0, {}]]]}, {"class_name": "Conv2D", "config": {"name": "conv3_block4_1_conv", "trainable": false, "dtype": "float32", "filters": 128, "kernel_size": [1, 1], "strides": [1, 1], "padding": "valid", "data_format": "channels_last", "dilation_rate": [1, 1], "groups": 1, "activation": "linear", "use_bias": false, "kernel_initializer": {"module": "keras.initializers", "class_name": "GlorotUniform", "config": {"seed": null}, "registered_name": null}, "bias_initializer": {"module": "keras.initializers", "class_name": "Zeros", "config": {}, "registered_name": null}, "kernel_regularizer": null, "bias_regularizer": null, "activity_regularizer": null, "kernel_constraint": null, "bias_constraint": null}, "name": "conv3_block4_1_conv", "inbound_nodes": [[["conv3_block4_0_relu", 0, 0, {}]]]}, {"class_name": "BatchNormalization", "config": {"name": "conv3_block4_1_bn", "trainable": false, "dtype": "float32", "axis": [3], "momentum": 0.99, "epsilon": 1.001e-05, "center": true, "scale": true, "beta_initializer": {"module": "keras.initializers", "class_name": "Zeros", "config": {}, "registered_name": null}, "gamma_initializer": {"module": "keras.initializers", "class_name": "Ones", "config": {}, "registered_name": null}, "moving_mean_initializer": {"module": "keras.initializers", "class_name": "Zeros", "config": {}, "registered_name": null}, "moving_variance_initializer": {"module": "keras.initializers", "class_name": "Ones", "config": {}, "registered_name": null}, "beta_regularizer": null, "gamma_regularizer": null, "beta_constraint": null, "gamma_constraint": null}, "name": "conv3_block4_1_bn", "inbound_nodes": [[["conv3_block4_1_conv", 0, 0, {}]]]}, {"class_name": "Activation", "config": {"name": "conv3_block4_1_relu", "trainable": false, "dtype": "float32", "activation": "relu"}, "name": "conv3_block4_1_relu", "inbound_nodes": [[["conv3_block4_1_bn", 0, 0, {}]]]}, {"class_name": "Conv2D", "config": {"name": "conv3_block4_2_conv", "trainable": false, "dtype": "float32", "filters": 32, "kernel_size": [3, 3], "strides": [1, 1], "padding": "same", "data_format": "channels_last", "dilation_rate": [1, 1], "groups": 1, "activation": "linear", "use_bias": false, "kernel_initializer": {"module": "keras.initializers", "class_name": "GlorotUniform", "config": {"seed": null}, "registered_name": null}, "bias_initializer": {"module": "keras.initializers", "class_name": "Zeros", "config": {}, "registered_name": null}, "kernel_regularizer": null, "bias_regularizer": null, "activity_regularizer": null, "kernel_constraint": null, "bias_constraint": null}, "name": "conv3_block4_2_conv", "inbound_nodes": [[["conv3_block4_1_relu", 0, 0, {}]]]}, {"class_name": "Concatenate", "config": {"name": "conv3_block4_concat", "trainable": false, "dtype": "float32", "axis": 3}, "name": "conv3_block4_concat", "inbound_nodes": [[["conv3_block3_concat", 0, 0, {}], ["conv3_block4_2_conv", 0, 0, {}]]]}, {"class_name": "BatchNormalization", "config": {"name": "conv3_block5_0_bn", "trainable": false, "dtype": "float32", "axis": [3], "momentum": 0.99, "epsilon": 1.001e-05, "center": true, "scale": true, "beta_initializer": {"module": "keras.initializers", "class_name": "Zeros", "config": {}, "registered_name": null}, "gamma_initializer": {"module": "keras.initializers", "class_name": "Ones", "config": {}, "registered_name": null}, "moving_mean_initializer": {"module": "keras.initializers", "class_name": "Zeros", "config": {}, "registered_name": null}, "moving_variance_initializer": {"module": "keras.initializers", "class_name": "Ones", "config": {}, "registered_name": null}, "beta_regularizer": null, "gamma_regularizer": null, "beta_constraint": null, "gamma_constraint": null}, "name": "conv3_block5_0_bn", "inbound_nodes": [[["conv3_block4_concat", 0, 0, {}]]]}, {"class_name": "Activation", "config": {"name": "conv3_block5_0_relu", "trainable": false, "dtype": "float32", "activation": "relu"}, "name": "conv3_block5_0_relu", "inbound_nodes": [[["conv3_block5_0_bn", 0, 0, {}]]]}, {"class_name": "Conv2D", "config": {"name": "conv3_block5_1_conv", "trainable": false, "dtype": "float32", "filters": 128, "kernel_size": [1, 1], "strides": [1, 1], "padding": "valid", "data_format": "channels_last", "dilation_rate": [1, 1], "groups": 1, "activation": "linear", "use_bias": false, "kernel_initializer": {"module": "keras.initializers", "class_name": "GlorotUniform", "config": {"seed": null}, "registered_name": null}, "bias_initializer": {"module": "keras.initializers", "class_name": "Zeros", "config": {}, "registered_name": null}, "kernel_regularizer": null, "bias_regularizer": null, "activity_regularizer": null, "kernel_constraint": null, "bias_constraint": null}, "name": "conv3_block5_1_conv", "inbound_nodes": [[["conv3_block5_0_relu", 0, 0, {}]]]}, {"class_name": "BatchNormalization", "config": {"name": "conv3_block5_1_bn", "trainable": false, "dtype": "float32", "axis": [3], "momentum": 0.99, "epsilon": 1.001e-05, "center": true, "scale": true, "beta_initializer": {"module": "keras.initializers", "class_name": "Zeros", "config": {}, "registered_name": null}, "gamma_initializer": {"module": "keras.initializers", "class_name": "Ones", "config": {}, "registered_name": null}, "moving_mean_initializer": {"module": "keras.initializers", "class_name": "Zeros", "config": {}, "registered_name": null}, "moving_variance_initializer": {"module": "keras.initializers", "class_name": "Ones", "config": {}, "registered_name": null}, "beta_regularizer": null, "gamma_regularizer": null, "beta_constraint": null, "gamma_constraint": null}, "name": "conv3_block5_1_bn", "inbound_nodes": [[["conv3_block5_1_conv", 0, 0, {}]]]}, {"class_name": "Activation", "config": {"name": "conv3_block5_1_relu", "trainable": false, "dtype": "float32", "activation": "relu"}, "name": "conv3_block5_1_relu", "inbound_nodes": [[["conv3_block5_1_bn", 0, 0, {}]]]}, {"class_name": "Conv2D", "config": {"name": "conv3_block5_2_conv", "trainable": false, "dtype": "float32", "filters": 32, "kernel_size": [3, 3], "strides": [1, 1], "padding": "same", "data_format": "channels_last", "dilation_rate": [1, 1], "groups": 1, "activation": "linear", "use_bias": false, "kernel_initializer": {"module": "keras.initializers", "class_name": "GlorotUniform", "config": {"seed": null}, "registered_name": null}, "bias_initializer": {"module": "keras.initializers", "class_name": "Zeros", "config": {}, "registered_name": null}, "kernel_regularizer": null, "bias_regularizer": null, "activity_regularizer": null, "kernel_constraint": null, "bias_constraint": null}, "name": "conv3_block5_2_conv", "inbound_nodes": [[["conv3_block5_1_relu", 0, 0, {}]]]}, {"class_name": "Concatenate", "config": {"name": "conv3_block5_concat", "trainable": false, "dtype": "float32", "axis": 3}, "name": "conv3_block5_concat", "inbound_nodes": [[["conv3_block4_concat", 0, 0, {}], ["conv3_block5_2_conv", 0, 0, {}]]]}, {"class_name": "BatchNormalization", "config": {"name": "conv3_block6_0_bn", "trainable": false, "dtype": "float32", "axis": [3], "momentum": 0.99, "epsilon": 1.001e-05, "center": true, "scale": true, "beta_initializer": {"module": "keras.initializers", "class_name": "Zeros", "config": {}, "registered_name": null}, "gamma_initializer": {"module": "keras.initializers", "class_name": "Ones", "config": {}, "registered_name": null}, "moving_mean_initializer": {"module": "keras.initializers", "class_name": "Zeros", "config": {}, "registered_name": null}, "moving_variance_initializer": {"module": "keras.initializers", "class_name": "Ones", "config": {}, "registered_name": null}, "beta_regularizer": null, "gamma_regularizer": null, "beta_constraint": null, "gamma_constraint": null}, "name": "conv3_block6_0_bn", "inbound_nodes": [[["conv3_block5_concat", 0, 0, {}]]]}, {"class_name": "Activation", "config": {"name": "conv3_block6_0_relu", "trainable": false, "dtype": "float32", "activation": "relu"}, "name": "conv3_block6_0_relu", "inbound_nodes": [[["conv3_block6_0_bn", 0, 0, {}]]]}, {"class_name": "Conv2D", "config": {"name": "conv3_block6_1_conv", "trainable": false, "dtype": "float32", "filters": 128, "kernel_size": [1, 1], "strides": [1, 1], "padding": "valid", "data_format": "channels_last", "dilation_rate": [1, 1], "groups": 1, "activation": "linear", "use_bias": false, "kernel_initializer": {"module": "keras.initializers", "class_name": "GlorotUniform", "config": {"seed": null}, "registered_name": null}, "bias_initializer": {"module": "keras.initializers", "class_name": "Zeros", "config": {}, "registered_name": null}, "kernel_regularizer": null, "bias_regularizer": null, "activity_regularizer": null, "kernel_constraint": null, "bias_constraint": null}, "name": "conv3_block6_1_conv", "inbound_nodes": [[["conv3_block6_0_relu", 0, 0, {}]]]}, {"class_name": "BatchNormalization", "config": {"name": "conv3_block6_1_bn", "trainable": false, "dtype": "float32", "axis": [3], "momentum": 0.99, "epsilon": 1.001e-05, "center": true, "scale": true, "beta_initializer": {"module": "keras.initializers", "class_name": "Zeros", "config": {}, "registered_name": null}, "gamma_initializer": {"module": "keras.initializers", "class_name": "Ones", "config": {}, "registered_name": null}, "moving_mean_initializer": {"module": "keras.initializers", "class_name": "Zeros", "config": {}, "registered_name": null}, "moving_variance_initializer": {"module": "keras.initializers", "class_name": "Ones", "config": {}, "registered_name": null}, "beta_regularizer": null, "gamma_regularizer": null, "beta_constraint": null, "gamma_constraint": null}, "name": "conv3_block6_1_bn", "inbound_nodes": [[["conv3_block6_1_conv", 0, 0, {}]]]}, {"class_name": "Activation", "config": {"name": "conv3_block6_1_relu", "trainable": false, "dtype": "float32", "activation": "relu"}, "name": "conv3_block6_1_relu", "inbound_nodes": [[["conv3_block6_1_bn", 0, 0, {}]]]}, {"class_name": "Conv2D", "config": {"name": "conv3_block6_2_conv", "trainable": false, "dtype": "float32", "filters": 32, "kernel_size": [3, 3], "strides": [1, 1], "padding": "same", "data_format": "channels_last", "dilation_rate": [1, 1], "groups": 1, "activation": "linear", "use_bias": false, "kernel_initializer": {"module": "keras.initializers", "class_name": "GlorotUniform", "config": {"seed": null}, "registered_name": null}, "bias_initializer": {"module": "keras.initializers", "class_name": "Zeros", "config": {}, "registered_name": null}, "kernel_regularizer": null, "bias_regularizer": null, "activity_regularizer": null, "kernel_constraint": null, "bias_constraint": null}, "name": "conv3_block6_2_conv", "inbound_nodes": [[["conv3_block6_1_relu", 0, 0, {}]]]}, {"class_name": "Concatenate", "config": {"name": "conv3_block6_concat", "trainable": false, "dtype": "float32", "axis": 3}, "name": "conv3_block6_concat", "inbound_nodes": [[["conv3_block5_concat", 0, 0, {}], ["conv3_block6_2_conv", 0, 0, {}]]]}, {"class_name": "BatchNormalization", "config": {"name": "conv3_block7_0_bn", "trainable": false, "dtype": "float32", "axis": [3], "momentum": 0.99, "epsilon": 1.001e-05, "center": true, "scale": true, "beta_initializer": {"module": "keras.initializers", "class_name": "Zeros", "config": {}, "registered_name": null}, "gamma_initializer": {"module": "keras.initializers", "class_name": "Ones", "config": {}, "registered_name": null}, "moving_mean_initializer": {"module": "keras.initializers", "class_name": "Zeros", "config": {}, "registered_name": null}, "moving_variance_initializer": {"module": "keras.initializers", "class_name": "Ones", "config": {}, "registered_name": null}, "beta_regularizer": null, "gamma_regularizer": null, "beta_constraint": null, "gamma_constraint": null}, "name": "conv3_block7_0_bn", "inbound_nodes": [[["conv3_block6_concat", 0, 0, {}]]]}, {"class_name": "Activation", "config": {"name": "conv3_block7_0_relu", "trainable": false, "dtype": "float32", "activation": "relu"}, "name": "conv3_block7_0_relu", "inbound_nodes": [[["conv3_block7_0_bn", 0, 0, {}]]]}, {"class_name": "Conv2D", "config": {"name": "conv3_block7_1_conv", "trainable": false, "dtype": "float32", "filters": 128, "kernel_size": [1, 1], "strides": [1, 1], "padding": "valid", "data_format": "channels_last", "dilation_rate": [1, 1], "groups": 1, "activation": "linear", "use_bias": false, "kernel_initializer": {"module": "keras.initializers", "class_name": "GlorotUniform", "config": {"seed": null}, "registered_name": null}, "bias_initializer": {"module": "keras.initializers", "class_name": "Zeros", "config": {}, "registered_name": null}, "kernel_regularizer": null, "bias_regularizer": null, "activity_regularizer": null, "kernel_constraint": null, "bias_constraint": null}, "name": "conv3_block7_1_conv", "inbound_nodes": [[["conv3_block7_0_relu", 0, 0, {}]]]}, {"class_name": "BatchNormalization", "config": {"name": "conv3_block7_1_bn", "trainable": false, "dtype": "float32", "axis": [3], "momentum": 0.99, "epsilon": 1.001e-05, "center": true, "scale": true, "beta_initializer": {"module": "keras.initializers", "class_name": "Zeros", "config": {}, "registered_name": null}, "gamma_initializer": {"module": "keras.initializers", "class_name": "Ones", "config": {}, "registered_name": null}, "moving_mean_initializer": {"module": "keras.initializers", "class_name": "Zeros", "config": {}, "registered_name": null}, "moving_variance_initializer": {"module": "keras.initializers", "class_name": "Ones", "config": {}, "registered_name": null}, "beta_regularizer": null, "gamma_regularizer": null, "beta_constraint": null, "gamma_constraint": null}, "name": "conv3_block7_1_bn", "inbound_nodes": [[["conv3_block7_1_conv", 0, 0, {}]]]}, {"class_name": "Activation", "config": {"name": "conv3_block7_1_relu", "trainable": false, "dtype": "float32", "activation": "relu"}, "name": "conv3_block7_1_relu", "inbound_nodes": [[["conv3_block7_1_bn", 0, 0, {}]]]}, {"class_name": "Conv2D", "config": {"name": "conv3_block7_2_conv", "trainable": false, "dtype": "float32", "filters": 32, "kernel_size": [3, 3], "strides": [1, 1], "padding": "same", "data_format": "channels_last", "dilation_rate": [1, 1], "groups": 1, "activation": "linear", "use_bias": false, "kernel_initializer": {"module": "keras.initializers", "class_name": "GlorotUniform", "config": {"seed": null}, "registered_name": null}, "bias_initializer": {"module": "keras.initializers", "class_name": "Zeros", "config": {}, "registered_name": null}, "kernel_regularizer": null, "bias_regularizer": null, "activity_regularizer": null, "kernel_constraint": null, "bias_constraint": null}, "name": "conv3_block7_2_conv", "inbound_nodes": [[["conv3_block7_1_relu", 0, 0, {}]]]}, {"class_name": "Concatenate", "config": {"name": "conv3_block7_concat", "trainable": false, "dtype": "float32", "axis": 3}, "name": "conv3_block7_concat", "inbound_nodes": [[["conv3_block6_concat", 0, 0, {}], ["conv3_block7_2_conv", 0, 0, {}]]]}, {"class_name": "BatchNormalization", "config": {"name": "conv3_block8_0_bn", "trainable": false, "dtype": "float32", "axis": [3], "momentum": 0.99, "epsilon": 1.001e-05, "center": true, "scale": true, "beta_initializer": {"module": "keras.initializers", "class_name": "Zeros", "config": {}, "registered_name": null}, "gamma_initializer": {"module": "keras.initializers", "class_name": "Ones", "config": {}, "registered_name": null}, "moving_mean_initializer": {"module": "keras.initializers", "class_name": "Zeros", "config": {}, "registered_name": null}, "moving_variance_initializer": {"module": "keras.initializers", "class_name": "Ones", "config": {}, "registered_name": null}, "beta_regularizer": null, "gamma_regularizer": null, "beta_constraint": null, "gamma_constraint": null}, "name": "conv3_block8_0_bn", "inbound_nodes": [[["conv3_block7_concat", 0, 0, {}]]]}, {"class_name": "Activation", "config": {"name": "conv3_block8_0_relu", "trainable": false, "dtype": "float32", "activation": "relu"}, "name": "conv3_block8_0_relu", "inbound_nodes": [[["conv3_block8_0_bn", 0, 0, {}]]]}, {"class_name": "Conv2D", "config": {"name": "conv3_block8_1_conv", "trainable": false, "dtype": "float32", "filters": 128, "kernel_size": [1, 1], "strides": [1, 1], "padding": "valid", "data_format": "channels_last", "dilation_rate": [1, 1], "groups": 1, "activation": "linear", "use_bias": false, "kernel_initializer": {"module": "keras.initializers", "class_name": "GlorotUniform", "config": {"seed": null}, "registered_name": null}, "bias_initializer": {"module": "keras.initializers", "class_name": "Zeros", "config": {}, "registered_name": null}, "kernel_regularizer": null, "bias_regularizer": null, "activity_regularizer": null, "kernel_constraint": null, "bias_constraint": null}, "name": "conv3_block8_1_conv", "inbound_nodes": [[["conv3_block8_0_relu", 0, 0, {}]]]}, {"class_name": "BatchNormalization", "config": {"name": "conv3_block8_1_bn", "trainable": false, "dtype": "float32", "axis": [3], "momentum": 0.99, "epsilon": 1.001e-05, "center": true, "scale": true, "beta_initializer": {"module": "keras.initializers", "class_name": "Zeros", "config": {}, "registered_name": null}, "gamma_initializer": {"module": "keras.initializers", "class_name": "Ones", "config": {}, "registered_name": null}, "moving_mean_initializer": {"module": "keras.initializers", "class_name": "Zeros", "config": {}, "registered_name": null}, "moving_variance_initializer": {"module": "keras.initializers", "class_name": "Ones", "config": {}, "registered_name": null}, "beta_regularizer": null, "gamma_regularizer": null, "beta_constraint": null, "gamma_constraint": null}, "name": "conv3_block8_1_bn", "inbound_nodes": [[["conv3_block8_1_conv", 0, 0, {}]]]}, {"class_name": "Activation", "config": {"name": "conv3_block8_1_relu", "trainable": false, "dtype": "float32", "activation": "relu"}, "name": "conv3_block8_1_relu", "inbound_nodes": [[["conv3_block8_1_bn", 0, 0, {}]]]}, {"class_name": "Conv2D", "config": {"name": "conv3_block8_2_conv", "trainable": false, "dtype": "float32", "filters": 32, "kernel_size": [3, 3], "strides": [1, 1], "padding": "same", "data_format": "channels_last", "dilation_rate": [1, 1], "groups": 1, "activation": "linear", "use_bias": false, "kernel_initializer": {"module": "keras.initializers", "class_name": "GlorotUniform", "config": {"seed": null}, "registered_name": null}, "bias_initializer": {"module": "keras.initializers", "class_name": "Zeros", "config": {}, "registered_name": null}, "kernel_regularizer": null, "bias_regularizer": null, "activity_regularizer": null, "kernel_constraint": null, "bias_constraint": null}, "name": "conv3_block8_2_conv", "inbound_nodes": [[["conv3_block8_1_relu", 0, 0, {}]]]}, {"class_name": "Concatenate", "config": {"name": "conv3_block8_concat", "trainable": false, "dtype": "float32", "axis": 3}, "name": "conv3_block8_concat", "inbound_nodes": [[["conv3_block7_concat", 0, 0, {}], ["conv3_block8_2_conv", 0, 0, {}]]]}, {"class_name": "BatchNormalization", "config": {"name": "conv3_block9_0_bn", "trainable": false, "dtype": "float32", "axis": [3], "momentum": 0.99, "epsilon": 1.001e-05, "center": true, "scale": true, "beta_initializer": {"module": "keras.initializers", "class_name": "Zeros", "config": {}, "registered_name": null}, "gamma_initializer": {"module": "keras.initializers", "class_name": "Ones", "config": {}, "registered_name": null}, "moving_mean_initializer": {"module": "keras.initializers", "class_name": "Zeros", "config": {}, "registered_name": null}, "moving_variance_initializer": {"module": "keras.initializers", "class_name": "Ones", "config": {}, "registered_name": null}, "beta_regularizer": null, "gamma_regularizer": null, "beta_constraint": null, "gamma_constraint": null}, "name": "conv3_block9_0_bn", "inbound_nodes": [[["conv3_block8_concat", 0, 0, {}]]]}, {"class_name": "Activation", "config": {"name": "conv3_block9_0_relu", "trainable": false, "dtype": "float32", "activation": "relu"}, "name": "conv3_block9_0_relu", "inbound_nodes": [[["conv3_block9_0_bn", 0, 0, {}]]]}, {"class_name": "Conv2D", "config": {"name": "conv3_block9_1_conv", "trainable": false, "dtype": "float32", "filters": 128, "kernel_size": [1, 1], "strides": [1, 1], "padding": "valid", "data_format": "channels_last", "dilation_rate": [1, 1], "groups": 1, "activation": "linear", "use_bias": false, "kernel_initializer": {"module": "keras.initializers", "class_name": "GlorotUniform", "config": {"seed": null}, "registered_name": null}, "bias_initializer": {"module": "keras.initializers", "class_name": "Zeros", "config": {}, "registered_name": null}, "kernel_regularizer": null, "bias_regularizer": null, "activity_regularizer": null, "kernel_constraint": null, "bias_constraint": null}, "name": "conv3_block9_1_conv", "inbound_nodes": [[["conv3_block9_0_relu", 0, 0, {}]]]}, {"class_name": "BatchNormalization", "config": {"name": "conv3_block9_1_bn", "trainable": false, "dtype": "float32", "axis": [3], "momentum": 0.99, "epsilon": 1.001e-05, "center": true, "scale": true, "beta_initializer": {"module": "keras.initializers", "class_name": "Zeros", "config": {}, "registered_name": null}, "gamma_initializer": {"module": "keras.initializers", "class_name": "Ones", "config": {}, "registered_name": null}, "moving_mean_initializer": {"module": "keras.initializers", "class_name": "Zeros", "config": {}, "registered_name": null}, "moving_variance_initializer": {"module": "keras.initializers", "class_name": "Ones", "config": {}, "registered_name": null}, "beta_regularizer": null, "gamma_regularizer": null, "beta_constraint": null, "gamma_constraint": null}, "name": "conv3_block9_1_bn", "inbound_nodes": [[["conv3_block9_1_conv", 0, 0, {}]]]}, {"class_name": "Activation", "config": {"name": "conv3_block9_1_relu", "trainable": false, "dtype": "float32", "activation": "relu"}, "name": "conv3_block9_1_relu", "inbound_nodes": [[["conv3_block9_1_bn", 0, 0, {}]]]}, {"class_name": "Conv2D", "config": {"name": "conv3_block9_2_conv", "trainable": false, "dtype": "float32", "filters": 32, "kernel_size": [3, 3], "strides": [1, 1], "padding": "same", "data_format": "channels_last", "dilation_rate": [1, 1], "groups": 1, "activation": "linear", "use_bias": false, "kernel_initializer": {"module": "keras.initializers", "class_name": "GlorotUniform", "config": {"seed": null}, "registered_name": null}, "bias_initializer": {"module": "keras.initializers", "class_name": "Zeros", "config": {}, "registered_name": null}, "kernel_regularizer": null, "bias_regularizer": null, "activity_regularizer": null, "kernel_constraint": null, "bias_constraint": null}, "name": "conv3_block9_2_conv", "inbound_nodes": [[["conv3_block9_1_relu", 0, 0, {}]]]}, {"class_name": "Concatenate", "config": {"name": "conv3_block9_concat", "trainable": false, "dtype": "float32", "axis": 3}, "name": "conv3_block9_concat", "inbound_nodes": [[["conv3_block8_concat", 0, 0, {}], ["conv3_block9_2_conv", 0, 0, {}]]]}, {"class_name": "BatchNormalization", "config": {"name": "conv3_block10_0_bn", "trainable": false, "dtype": "float32", "axis": [3], "momentum": 0.99, "epsilon": 1.001e-05, "center": true, "scale": true, "beta_initializer": {"module": "keras.initializers", "class_name": "Zeros", "config": {}, "registered_name": null}, "gamma_initializer": {"module": "keras.initializers", "class_name": "Ones", "config": {}, "registered_name": null}, "moving_mean_initializer": {"module": "keras.initializers", "class_name": "Zeros", "config": {}, "registered_name": null}, "moving_variance_initializer": {"module": "keras.initializers", "class_name": "Ones", "config": {}, "registered_name": null}, "beta_regularizer": null, "gamma_regularizer": null, "beta_constraint": null, "gamma_constraint": null}, "name": "conv3_block10_0_bn", "inbound_nodes": [[["conv3_block9_concat", 0, 0, {}]]]}, {"class_name": "Activation", "config": {"name": "conv3_block10_0_relu", "trainable": false, "dtype": "float32", "activation": "relu"}, "name": "conv3_block10_0_relu", "inbound_nodes": [[["conv3_block10_0_bn", 0, 0, {}]]]}, {"class_name": "Conv2D", "config": {"name": "conv3_block10_1_conv", "trainable": false, "dtype": "float32", "filters": 128, "kernel_size": [1, 1], "strides": [1, 1], "padding": "valid", "data_format": "channels_last", "dilation_rate": [1, 1], "groups": 1, "activation": "linear", "use_bias": false, "kernel_initializer": {"module": "keras.initializers", "class_name": "GlorotUniform", "config": {"seed": null}, "registered_name": null}, "bias_initializer": {"module": "keras.initializers", "class_name": "Zeros", "config": {}, "registered_name": null}, "kernel_regularizer": null, "bias_regularizer": null, "activity_regularizer": null, "kernel_constraint": null, "bias_constraint": null}, "name": "conv3_block10_1_conv", "inbound_nodes": [[["conv3_block10_0_relu", 0, 0, {}]]]}, {"class_name": "BatchNormalization", "config": {"name": "conv3_block10_1_bn", "trainable": false, "dtype": "float32", "axis": [3], "momentum": 0.99, "epsilon": 1.001e-05, "center": true, "scale": true, "beta_initializer": {"module": "keras.initializers", "class_name": "Zeros", "config": {}, "registered_name": null}, "gamma_initializer": {"module": "keras.initializers", "class_name": "Ones", "config": {}, "registered_name": null}, "moving_mean_initializer": {"module": "keras.initializers", "class_name": "Zeros", "config": {}, "registered_name": null}, "moving_variance_initializer": {"module": "keras.initializers", "class_name": "Ones", "config": {}, "registered_name": null}, "beta_regularizer": null, "gamma_regularizer": null, "beta_constraint": null, "gamma_constraint": null}, "name": "conv3_block10_1_bn", "inbound_nodes": [[["conv3_block10_1_conv", 0, 0, {}]]]}, {"class_name": "Activation", "config": {"name": "conv3_block10_1_relu", "trainable": false, "dtype": "float32", "activation": "relu"}, "name": "conv3_block10_1_relu", "inbound_nodes": [[["conv3_block10_1_bn", 0, 0, {}]]]}, {"class_name": "Conv2D", "config": {"name": "conv3_block10_2_conv", "trainable": false, "dtype": "float32", "filters": 32, "kernel_size": [3, 3], "strides": [1, 1], "padding": "same", "data_format": "channels_last", "dilation_rate": [1, 1], "groups": 1, "activation": "linear", "use_bias": false, "kernel_initializer": {"module": "keras.initializers", "class_name": "GlorotUniform", "config": {"seed": null}, "registered_name": null}, "bias_initializer": {"module": "keras.initializers", "class_name": "Zeros", "config": {}, "registered_name": null}, "kernel_regularizer": null, "bias_regularizer": null, "activity_regularizer": null, "kernel_constraint": null, "bias_constraint": null}, "name": "conv3_block10_2_conv", "inbound_nodes": [[["conv3_block10_1_relu", 0, 0, {}]]]}, {"class_name": "Concatenate", "config": {"name": "conv3_block10_concat", "trainable": false, "dtype": "float32", "axis": 3}, "name": "conv3_block10_concat", "inbound_nodes": [[["conv3_block9_concat", 0, 0, {}], ["conv3_block10_2_conv", 0, 0, {}]]]}, {"class_name": "BatchNormalization", "config": {"name": "conv3_block11_0_bn", "trainable": false, "dtype": "float32", "axis": [3], "momentum": 0.99, "epsilon": 1.001e-05, "center": true, "scale": true, "beta_initializer": {"module": "keras.initializers", "class_name": "Zeros", "config": {}, "registered_name": null}, "gamma_initializer": {"module": "keras.initializers", "class_name": "Ones", "config": {}, "registered_name": null}, "moving_mean_initializer": {"module": "keras.initializers", "class_name": "Zeros", "config": {}, "registered_name": null}, "moving_variance_initializer": {"module": "keras.initializers", "class_name": "Ones", "config": {}, "registered_name": null}, "beta_regularizer": null, "gamma_regularizer": null, "beta_constraint": null, "gamma_constraint": null}, "name": "conv3_block11_0_bn", "inbound_nodes": [[["conv3_block10_concat", 0, 0, {}]]]}, {"class_name": "Activation", "config": {"name": "conv3_block11_0_relu", "trainable": false, "dtype": "float32", "activation": "relu"}, "name": "conv3_block11_0_relu", "inbound_nodes": [[["conv3_block11_0_bn", 0, 0, {}]]]}, {"class_name": "Conv2D", "config": {"name": "conv3_block11_1_conv", "trainable": false, "dtype": "float32", "filters": 128, "kernel_size": [1, 1], "strides": [1, 1], "padding": "valid", "data_format": "channels_last", "dilation_rate": [1, 1], "groups": 1, "activation": "linear", "use_bias": false, "kernel_initializer": {"module": "keras.initializers", "class_name": "GlorotUniform", "config": {"seed": null}, "registered_name": null}, "bias_initializer": {"module": "keras.initializers", "class_name": "Zeros", "config": {}, "registered_name": null}, "kernel_regularizer": null, "bias_regularizer": null, "activity_regularizer": null, "kernel_constraint": null, "bias_constraint": null}, "name": "conv3_block11_1_conv", "inbound_nodes": [[["conv3_block11_0_relu", 0, 0, {}]]]}, {"class_name": "BatchNormalization", "config": {"name": "conv3_block11_1_bn", "trainable": false, "dtype": "float32", "axis": [3], "momentum": 0.99, "epsilon": 1.001e-05, "center": true, "scale": true, "beta_initializer": {"module": "keras.initializers", "class_name": "Zeros", "config": {}, "registered_name": null}, "gamma_initializer": {"module": "keras.initializers", "class_name": "Ones", "config": {}, "registered_name": null}, "moving_mean_initializer": {"module": "keras.initializers", "class_name": "Zeros", "config": {}, "registered_name": null}, "moving_variance_initializer": {"module": "keras.initializers", "class_name": "Ones", "config": {}, "registered_name": null}, "beta_regularizer": null, "gamma_regularizer": null, "beta_constraint": null, "gamma_constraint": null}, "name": "conv3_block11_1_bn", "inbound_nodes": [[["conv3_block11_1_conv", 0, 0, {}]]]}, {"class_name": "Activation", "config": {"name": "conv3_block11_1_relu", "trainable": false, "dtype": "float32", "activation": "relu"}, "name": "conv3_block11_1_relu", "inbound_nodes": [[["conv3_block11_1_bn", 0, 0, {}]]]}, {"class_name": "Conv2D", "config": {"name": "conv3_block11_2_conv", "trainable": false, "dtype": "float32", "filters": 32, "kernel_size": [3, 3], "strides": [1, 1], "padding": "same", "data_format": "channels_last", "dilation_rate": [1, 1], "groups": 1, "activation": "linear", "use_bias": false, "kernel_initializer": {"module": "keras.initializers", "class_name": "GlorotUniform", "config": {"seed": null}, "registered_name": null}, "bias_initializer": {"module": "keras.initializers", "class_name": "Zeros", "config": {}, "registered_name": null}, "kernel_regularizer": null, "bias_regularizer": null, "activity_regularizer": null, "kernel_constraint": null, "bias_constraint": null}, "name": "conv3_block11_2_conv", "inbound_nodes": [[["conv3_block11_1_relu", 0, 0, {}]]]}, {"class_name": "Concatenate", "config": {"name": "conv3_block11_concat", "trainable": false, "dtype": "float32", "axis": 3}, "name": "conv3_block11_concat", "inbound_nodes": [[["conv3_block10_concat", 0, 0, {}], ["conv3_block11_2_conv", 0, 0, {}]]]}, {"class_name": "BatchNormalization", "config": {"name": "conv3_block12_0_bn", "trainable": false, "dtype": "float32", "axis": [3], "momentum": 0.99, "epsilon": 1.001e-05, "center": true, "scale": true, "beta_initializer": {"module": "keras.initializers", "class_name": "Zeros", "config": {}, "registered_name": null}, "gamma_initializer": {"module": "keras.initializers", "class_name": "Ones", "config": {}, "registered_name": null}, "moving_mean_initializer": {"module": "keras.initializers", "class_name": "Zeros", "config": {}, "registered_name": null}, "moving_variance_initializer": {"module": "keras.initializers", "class_name": "Ones", "config": {}, "registered_name": null}, "beta_regularizer": null, "gamma_regularizer": null, "beta_constraint": null, "gamma_constraint": null}, "name": "conv3_block12_0_bn", "inbound_nodes": [[["conv3_block11_concat", 0, 0, {}]]]}, {"class_name": "Activation", "config": {"name": "conv3_block12_0_relu", "trainable": false, "dtype": "float32", "activation": "relu"}, "name": "conv3_block12_0_relu", "inbound_nodes": [[["conv3_block12_0_bn", 0, 0, {}]]]}, {"class_name": "Conv2D", "config": {"name": "conv3_block12_1_conv", "trainable": false, "dtype": "float32", "filters": 128, "kernel_size": [1, 1], "strides": [1, 1], "padding": "valid", "data_format": "channels_last", "dilation_rate": [1, 1], "groups": 1, "activation": "linear", "use_bias": false, "kernel_initializer": {"module": "keras.initializers", "class_name": "GlorotUniform", "config": {"seed": null}, "registered_name": null}, "bias_initializer": {"module": "keras.initializers", "class_name": "Zeros", "config": {}, "registered_name": null}, "kernel_regularizer": null, "bias_regularizer": null, "activity_regularizer": null, "kernel_constraint": null, "bias_constraint": null}, "name": "conv3_block12_1_conv", "inbound_nodes": [[["conv3_block12_0_relu", 0, 0, {}]]]}, {"class_name": "BatchNormalization", "config": {"name": "conv3_block12_1_bn", "trainable": false, "dtype": "float32", "axis": [3], "momentum": 0.99, "epsilon": 1.001e-05, "center": true, "scale": true, "beta_initializer": {"module": "keras.initializers", "class_name": "Zeros", "config": {}, "registered_name": null}, "gamma_initializer": {"module": "keras.initializers", "class_name": "Ones", "config": {}, "registered_name": null}, "moving_mean_initializer": {"module": "keras.initializers", "class_name": "Zeros", "config": {}, "registered_name": null}, "moving_variance_initializer": {"module": "keras.initializers", "class_name": "Ones", "config": {}, "registered_name": null}, "beta_regularizer": null, "gamma_regularizer": null, "beta_constraint": null, "gamma_constraint": null}, "name": "conv3_block12_1_bn", "inbound_nodes": [[["conv3_block12_1_conv", 0, 0, {}]]]}, {"class_name": "Activation", "config": {"name": "conv3_block12_1_relu", "trainable": false, "dtype": "float32", "activation": "relu"}, "name": "conv3_block12_1_relu", "inbound_nodes": [[["conv3_block12_1_bn", 0, 0, {}]]]}, {"class_name": "Conv2D", "config": {"name": "conv3_block12_2_conv", "trainable": false, "dtype": "float32", "filters": 32, "kernel_size": [3, 3], "strides": [1, 1], "padding": "same", "data_format": "channels_last", "dilation_rate": [1, 1], "groups": 1, "activation": "linear", "use_bias": false, "kernel_initializer": {"module": "keras.initializers", "class_name": "GlorotUniform", "config": {"seed": null}, "registered_name": null}, "bias_initializer": {"module": "keras.initializers", "class_name": "Zeros", "config": {}, "registered_name": null}, "kernel_regularizer": null, "bias_regularizer": null, "activity_regularizer": null, "kernel_constraint": null, "bias_constraint": null}, "name": "conv3_block12_2_conv", "inbound_nodes": [[["conv3_block12_1_relu", 0, 0, {}]]]}, {"class_name": "Concatenate", "config": {"name": "conv3_block12_concat", "trainable": false, "dtype": "float32", "axis": 3}, "name": "conv3_block12_concat", "inbound_nodes": [[["conv3_block11_concat", 0, 0, {}], ["conv3_block12_2_conv", 0, 0, {}]]]}, {"class_name": "BatchNormalization", "config": {"name": "pool3_bn", "trainable": false, "dtype": "float32", "axis": [3], "momentum": 0.99, "epsilon": 1.001e-05, "center": true, "scale": true, "beta_initializer": {"module": "keras.initializers", "class_name": "Zeros", "config": {}, "registered_name": null}, "gamma_initializer": {"module": "keras.initializers", "class_name": "Ones", "config": {}, "registered_name": null}, "moving_mean_initializer": {"module": "keras.initializers", "class_name": "Zeros", "config": {}, "registered_name": null}, "moving_variance_initializer": {"module": "keras.initializers", "class_name": "Ones", "config": {}, "registered_name": null}, "beta_regularizer": null, "gamma_regularizer": null, "beta_constraint": null, "gamma_constraint": null}, "name": "pool3_bn", "inbound_nodes": [[["conv3_block12_concat", 0, 0, {}]]]}, {"class_name": "Activation", "config": {"name": "pool3_relu", "trainable": false, "dtype": "float32", "activation": "relu"}, "name": "pool3_relu", "inbound_nodes": [[["pool3_bn", 0, 0, {}]]]}, {"class_name": "Conv2D", "config": {"name": "pool3_conv", "trainable": false, "dtype": "float32", "filters": 256, "kernel_size": [1, 1], "strides": [1, 1], "padding": "valid", "data_format": "channels_last", "dilation_rate": [1, 1], "groups": 1, "activation": "linear", "use_bias": false, "kernel_initializer": {"module": "keras.initializers", "class_name": "GlorotUniform", "config": {"seed": null}, "registered_name": null}, "bias_initializer": {"module": "keras.initializers", "class_name": "Zeros", "config": {}, "registered_name": null}, "kernel_regularizer": null, "bias_regularizer": null, "activity_regularizer": null, "kernel_constraint": null, "bias_constraint": null}, "name": "pool3_conv", "inbound_nodes": [[["pool3_relu", 0, 0, {}]]]}, {"class_name": "AveragePooling2D", "config": {"name": "pool3_pool", "trainable": false, "dtype": "float32", "pool_size": [2, 2], "padding": "valid", "strides": [2, 2], "data_format": "channels_last"}, "name": "pool3_pool", "inbound_nodes": [[["pool3_conv", 0, 0, {}]]]}, {"class_name": "BatchNormalization", "config": {"name": "conv4_block1_0_bn", "trainable": false, "dtype": "float32", "axis": [3], "momentum": 0.99, "epsilon": 1.001e-05, "center": true, "scale": true, "beta_initializer": {"module": "keras.initializers", "class_name": "Zeros", "config": {}, "registered_name": null}, "gamma_initializer": {"module": "keras.initializers", "class_name": "Ones", "config": {}, "registered_name": null}, "moving_mean_initializer": {"module": "keras.initializers", "class_name": "Zeros", "config": {}, "registered_name": null}, "moving_variance_initializer": {"module": "keras.initializers", "class_name": "Ones", "config": {}, "registered_name": null}, "beta_regularizer": null, "gamma_regularizer": null, "beta_constraint": null, "gamma_constraint": null}, "name": "conv4_block1_0_bn", "inbound_nodes": [[["pool3_pool", 0, 0, {}]]]}, {"class_name": "Activation", "config": {"name": "conv4_block1_0_relu", "trainable": false, "dtype": "float32", "activation": "relu"}, "name": "conv4_block1_0_relu", "inbound_nodes": [[["conv4_block1_0_bn", 0, 0, {}]]]}, {"class_name": "Conv2D", "config": {"name": "conv4_block1_1_conv", "trainable": false, "dtype": "float32", "filters": 128, "kernel_size": [1, 1], "strides": [1, 1], "padding": "valid", "data_format": "channels_last", "dilation_rate": [1, 1], "groups": 1, "activation": "linear", "use_bias": false, "kernel_initializer": {"module": "keras.initializers", "class_name": "GlorotUniform", "config": {"seed": null}, "registered_name": null}, "bias_initializer": {"module": "keras.initializers", "class_name": "Zeros", "config": {}, "registered_name": null}, "kernel_regularizer": null, "bias_regularizer": null, "activity_regularizer": null, "kernel_constraint": null, "bias_constraint": null}, "name": "conv4_block1_1_conv", "inbound_nodes": [[["conv4_block1_0_relu", 0, 0, {}]]]}, {"class_name": "BatchNormalization", "config": {"name": "conv4_block1_1_bn", "trainable": false, "dtype": "float32", "axis": [3], "momentum": 0.99, "epsilon": 1.001e-05, "center": true, "scale": true, "beta_initializer": {"module": "keras.initializers", "class_name": "Zeros", "config": {}, "registered_name": null}, "gamma_initializer": {"module": "keras.initializers", "class_name": "Ones", "config": {}, "registered_name": null}, "moving_mean_initializer": {"module": "keras.initializers", "class_name": "Zeros", "config": {}, "registered_name": null}, "moving_variance_initializer": {"module": "keras.initializers", "class_name": "Ones", "config": {}, "registered_name": null}, "beta_regularizer": null, "gamma_regularizer": null, "beta_constraint": null, "gamma_constraint": null}, "name": "conv4_block1_1_bn", "inbound_nodes": [[["conv4_block1_1_conv", 0, 0, {}]]]}, {"class_name": "Activation", "config": {"name": "conv4_block1_1_relu", "trainable": false, "dtype": "float32", "activation": "relu"}, "name": "conv4_block1_1_relu", "inbound_nodes": [[["conv4_block1_1_bn", 0, 0, {}]]]}, {"class_name": "Conv2D", "config": {"name": "conv4_block1_2_conv", "trainable": false, "dtype": "float32", "filters": 32, "kernel_size": [3, 3], "strides": [1, 1], "padding": "same", "data_format": "channels_last", "dilation_rate": [1, 1], "groups": 1, "activation": "linear", "use_bias": false, "kernel_initializer": {"module": "keras.initializers", "class_name": "GlorotUniform", "config": {"seed": null}, "registered_name": null}, "bias_initializer": {"module": "keras.initializers", "class_name": "Zeros", "config": {}, "registered_name": null}, "kernel_regularizer": null, "bias_regularizer": null, "activity_regularizer": null, "kernel_constraint": null, "bias_constraint": null}, "name": "conv4_block1_2_conv", "inbound_nodes": [[["conv4_block1_1_relu", 0, 0, {}]]]}, {"class_name": "Concatenate", "config": {"name": "conv4_block1_concat", "trainable": false, "dtype": "float32", "axis": 3}, "name": "conv4_block1_concat", "inbound_nodes": [[["pool3_pool", 0, 0, {}], ["conv4_block1_2_conv", 0, 0, {}]]]}, {"class_name": "BatchNormalization", "config": {"name": "conv4_block2_0_bn", "trainable": false, "dtype": "float32", "axis": [3], "momentum": 0.99, "epsilon": 1.001e-05, "center": true, "scale": true, "beta_initializer": {"module": "keras.initializers", "class_name": "Zeros", "config": {}, "registered_name": null}, "gamma_initializer": {"module": "keras.initializers", "class_name": "Ones", "config": {}, "registered_name": null}, "moving_mean_initializer": {"module": "keras.initializers", "class_name": "Zeros", "config": {}, "registered_name": null}, "moving_variance_initializer": {"module": "keras.initializers", "class_name": "Ones", "config": {}, "registered_name": null}, "beta_regularizer": null, "gamma_regularizer": null, "beta_constraint": null, "gamma_constraint": null}, "name": "conv4_block2_0_bn", "inbound_nodes": [[["conv4_block1_concat", 0, 0, {}]]]}, {"class_name": "Activation", "config": {"name": "conv4_block2_0_relu", "trainable": false, "dtype": "float32", "activation": "relu"}, "name": "conv4_block2_0_relu", "inbound_nodes": [[["conv4_block2_0_bn", 0, 0, {}]]]}, {"class_name": "Conv2D", "config": {"name": "conv4_block2_1_conv", "trainable": false, "dtype": "float32", "filters": 128, "kernel_size": [1, 1], "strides": [1, 1], "padding": "valid", "data_format": "channels_last", "dilation_rate": [1, 1], "groups": 1, "activation": "linear", "use_bias": false, "kernel_initializer": {"module": "keras.initializers", "class_name": "GlorotUniform", "config": {"seed": null}, "registered_name": null}, "bias_initializer": {"module": "keras.initializers", "class_name": "Zeros", "config": {}, "registered_name": null}, "kernel_regularizer": null, "bias_regularizer": null, "activity_regularizer": null, "kernel_constraint": null, "bias_constraint": null}, "name": "conv4_block2_1_conv", "inbound_nodes": [[["conv4_block2_0_relu", 0, 0, {}]]]}, {"class_name": "BatchNormalization", "config": {"name": "conv4_block2_1_bn", "trainable": false, "dtype": "float32", "axis": [3], "momentum": 0.99, "epsilon": 1.001e-05, "center": true, "scale": true, "beta_initializer": {"module": "keras.initializers", "class_name": "Zeros", "config": {}, "registered_name": null}, "gamma_initializer": {"module": "keras.initializers", "class_name": "Ones", "config": {}, "registered_name": null}, "moving_mean_initializer": {"module": "keras.initializers", "class_name": "Zeros", "config": {}, "registered_name": null}, "moving_variance_initializer": {"module": "keras.initializers", "class_name": "Ones", "config": {}, "registered_name": null}, "beta_regularizer": null, "gamma_regularizer": null, "beta_constraint": null, "gamma_constraint": null}, "name": "conv4_block2_1_bn", "inbound_nodes": [[["conv4_block2_1_conv", 0, 0, {}]]]}, {"class_name": "Activation", "config": {"name": "conv4_block2_1_relu", "trainable": false, "dtype": "float32", "activation": "relu"}, "name": "conv4_block2_1_relu", "inbound_nodes": [[["conv4_block2_1_bn", 0, 0, {}]]]}, {"class_name": "Conv2D", "config": {"name": "conv4_block2_2_conv", "trainable": false, "dtype": "float32", "filters": 32, "kernel_size": [3, 3], "strides": [1, 1], "padding": "same", "data_format": "channels_last", "dilation_rate": [1, 1], "groups": 1, "activation": "linear", "use_bias": false, "kernel_initializer": {"module": "keras.initializers", "class_name": "GlorotUniform", "config": {"seed": null}, "registered_name": null}, "bias_initializer": {"module": "keras.initializers", "class_name": "Zeros", "config": {}, "registered_name": null}, "kernel_regularizer": null, "bias_regularizer": null, "activity_regularizer": null, "kernel_constraint": null, "bias_constraint": null}, "name": "conv4_block2_2_conv", "inbound_nodes": [[["conv4_block2_1_relu", 0, 0, {}]]]}, {"class_name": "Concatenate", "config": {"name": "conv4_block2_concat", "trainable": false, "dtype": "float32", "axis": 3}, "name": "conv4_block2_concat", "inbound_nodes": [[["conv4_block1_concat", 0, 0, {}], ["conv4_block2_2_conv", 0, 0, {}]]]}, {"class_name": "BatchNormalization", "config": {"name": "conv4_block3_0_bn", "trainable": false, "dtype": "float32", "axis": [3], "momentum": 0.99, "epsilon": 1.001e-05, "center": true, "scale": true, "beta_initializer": {"module": "keras.initializers", "class_name": "Zeros", "config": {}, "registered_name": null}, "gamma_initializer": {"module": "keras.initializers", "class_name": "Ones", "config": {}, "registered_name": null}, "moving_mean_initializer": {"module": "keras.initializers", "class_name": "Zeros", "config": {}, "registered_name": null}, "moving_variance_initializer": {"module": "keras.initializers", "class_name": "Ones", "config": {}, "registered_name": null}, "beta_regularizer": null, "gamma_regularizer": null, "beta_constraint": null, "gamma_constraint": null}, "name": "conv4_block3_0_bn", "inbound_nodes": [[["conv4_block2_concat", 0, 0, {}]]]}, {"class_name": "Activation", "config": {"name": "conv4_block3_0_relu", "trainable": false, "dtype": "float32", "activation": "relu"}, "name": "conv4_block3_0_relu", "inbound_nodes": [[["conv4_block3_0_bn", 0, 0, {}]]]}, {"class_name": "Conv2D", "config": {"name": "conv4_block3_1_conv", "trainable": false, "dtype": "float32", "filters": 128, "kernel_size": [1, 1], "strides": [1, 1], "padding": "valid", "data_format": "channels_last", "dilation_rate": [1, 1], "groups": 1, "activation": "linear", "use_bias": false, "kernel_initializer": {"module": "keras.initializers", "class_name": "GlorotUniform", "config": {"seed": null}, "registered_name": null}, "bias_initializer": {"module": "keras.initializers", "class_name": "Zeros", "config": {}, "registered_name": null}, "kernel_regularizer": null, "bias_regularizer": null, "activity_regularizer": null, "kernel_constraint": null, "bias_constraint": null}, "name": "conv4_block3_1_conv", "inbound_nodes": [[["conv4_block3_0_relu", 0, 0, {}]]]}, {"class_name": "BatchNormalization", "config": {"name": "conv4_block3_1_bn", "trainable": false, "dtype": "float32", "axis": [3], "momentum": 0.99, "epsilon": 1.001e-05, "center": true, "scale": true, "beta_initializer": {"module": "keras.initializers", "class_name": "Zeros", "config": {}, "registered_name": null}, "gamma_initializer": {"module": "keras.initializers", "class_name": "Ones", "config": {}, "registered_name": null}, "moving_mean_initializer": {"module": "keras.initializers", "class_name": "Zeros", "config": {}, "registered_name": null}, "moving_variance_initializer": {"module": "keras.initializers", "class_name": "Ones", "config": {}, "registered_name": null}, "beta_regularizer": null, "gamma_regularizer": null, "beta_constraint": null, "gamma_constraint": null}, "name": "conv4_block3_1_bn", "inbound_nodes": [[["conv4_block3_1_conv", 0, 0, {}]]]}, {"class_name": "Activation", "config": {"name": "conv4_block3_1_relu", "trainable": false, "dtype": "float32", "activation": "relu"}, "name": "conv4_block3_1_relu", "inbound_nodes": [[["conv4_block3_1_bn", 0, 0, {}]]]}, {"class_name": "Conv2D", "config": {"name": "conv4_block3_2_conv", "trainable": false, "dtype": "float32", "filters": 32, "kernel_size": [3, 3], "strides": [1, 1], "padding": "same", "data_format": "channels_last", "dilation_rate": [1, 1], "groups": 1, "activation": "linear", "use_bias": false, "kernel_initializer": {"module": "keras.initializers", "class_name": "GlorotUniform", "config": {"seed": null}, "registered_name": null}, "bias_initializer": {"module": "keras.initializers", "class_name": "Zeros", "config": {}, "registered_name": null}, "kernel_regularizer": null, "bias_regularizer": null, "activity_regularizer": null, "kernel_constraint": null, "bias_constraint": null}, "name": "conv4_block3_2_conv", "inbound_nodes": [[["conv4_block3_1_relu", 0, 0, {}]]]}, {"class_name": "Concatenate", "config": {"name": "conv4_block3_concat", "trainable": false, "dtype": "float32", "axis": 3}, "name": "conv4_block3_concat", "inbound_nodes": [[["conv4_block2_concat", 0, 0, {}], ["conv4_block3_2_conv", 0, 0, {}]]]}, {"class_name": "BatchNormalization", "config": {"name": "conv4_block4_0_bn", "trainable": false, "dtype": "float32", "axis": [3], "momentum": 0.99, "epsilon": 1.001e-05, "center": true, "scale": true, "beta_initializer": {"module": "keras.initializers", "class_name": "Zeros", "config": {}, "registered_name": null}, "gamma_initializer": {"module": "keras.initializers", "class_name": "Ones", "config": {}, "registered_name": null}, "moving_mean_initializer": {"module": "keras.initializers", "class_name": "Zeros", "config": {}, "registered_name": null}, "moving_variance_initializer": {"module": "keras.initializers", "class_name": "Ones", "config": {}, "registered_name": null}, "beta_regularizer": null, "gamma_regularizer": null, "beta_constraint": null, "gamma_constraint": null}, "name": "conv4_block4_0_bn", "inbound_nodes": [[["conv4_block3_concat", 0, 0, {}]]]}, {"class_name": "Activation", "config": {"name": "conv4_block4_0_relu", "trainable": false, "dtype": "float32", "activation": "relu"}, "name": "conv4_block4_0_relu", "inbound_nodes": [[["conv4_block4_0_bn", 0, 0, {}]]]}, {"class_name": "Conv2D", "config": {"name": "conv4_block4_1_conv", "trainable": false, "dtype": "float32", "filters": 128, "kernel_size": [1, 1], "strides": [1, 1], "padding": "valid", "data_format": "channels_last", "dilation_rate": [1, 1], "groups": 1, "activation": "linear", "use_bias": false, "kernel_initializer": {"module": "keras.initializers", "class_name": "GlorotUniform", "config": {"seed": null}, "registered_name": null}, "bias_initializer": {"module": "keras.initializers", "class_name": "Zeros", "config": {}, "registered_name": null}, "kernel_regularizer": null, "bias_regularizer": null, "activity_regularizer": null, "kernel_constraint": null, "bias_constraint": null}, "name": "conv4_block4_1_conv", "inbound_nodes": [[["conv4_block4_0_relu", 0, 0, {}]]]}, {"class_name": "BatchNormalization", "config": {"name": "conv4_block4_1_bn", "trainable": false, "dtype": "float32", "axis": [3], "momentum": 0.99, "epsilon": 1.001e-05, "center": true, "scale": true, "beta_initializer": {"module": "keras.initializers", "class_name": "Zeros", "config": {}, "registered_name": null}, "gamma_initializer": {"module": "keras.initializers", "class_name": "Ones", "config": {}, "registered_name": null}, "moving_mean_initializer": {"module": "keras.initializers", "class_name": "Zeros", "config": {}, "registered_name": null}, "moving_variance_initializer": {"module": "keras.initializers", "class_name": "Ones", "config": {}, "registered_name": null}, "beta_regularizer": null, "gamma_regularizer": null, "beta_constraint": null, "gamma_constraint": null}, "name": "conv4_block4_1_bn", "inbound_nodes": [[["conv4_block4_1_conv", 0, 0, {}]]]}, {"class_name": "Activation", "config": {"name": "conv4_block4_1_relu", "trainable": false, "dtype": "float32", "activation": "relu"}, "name": "conv4_block4_1_relu", "inbound_nodes": [[["conv4_block4_1_bn", 0, 0, {}]]]}, {"class_name": "Conv2D", "config": {"name": "conv4_block4_2_conv", "trainable": false, "dtype": "float32", "filters": 32, "kernel_size": [3, 3], "strides": [1, 1], "padding": "same", "data_format": "channels_last", "dilation_rate": [1, 1], "groups": 1, "activation": "linear", "use_bias": false, "kernel_initializer": {"module": "keras.initializers", "class_name": "GlorotUniform", "config": {"seed": null}, "registered_name": null}, "bias_initializer": {"module": "keras.initializers", "class_name": "Zeros", "config": {}, "registered_name": null}, "kernel_regularizer": null, "bias_regularizer": null, "activity_regularizer": null, "kernel_constraint": null, "bias_constraint": null}, "name": "conv4_block4_2_conv", "inbound_nodes": [[["conv4_block4_1_relu", 0, 0, {}]]]}, {"class_name": "Concatenate", "config": {"name": "conv4_block4_concat", "trainable": false, "dtype": "float32", "axis": 3}, "name": "conv4_block4_concat", "inbound_nodes": [[["conv4_block3_concat", 0, 0, {}], ["conv4_block4_2_conv", 0, 0, {}]]]}, {"class_name": "BatchNormalization", "config": {"name": "conv4_block5_0_bn", "trainable": false, "dtype": "float32", "axis": [3], "momentum": 0.99, "epsilon": 1.001e-05, "center": true, "scale": true, "beta_initializer": {"module": "keras.initializers", "class_name": "Zeros", "config": {}, "registered_name": null}, "gamma_initializer": {"module": "keras.initializers", "class_name": "Ones", "config": {}, "registered_name": null}, "moving_mean_initializer": {"module": "keras.initializers", "class_name": "Zeros", "config": {}, "registered_name": null}, "moving_variance_initializer": {"module": "keras.initializers", "class_name": "Ones", "config": {}, "registered_name": null}, "beta_regularizer": null, "gamma_regularizer": null, "beta_constraint": null, "gamma_constraint": null}, "name": "conv4_block5_0_bn", "inbound_nodes": [[["conv4_block4_concat", 0, 0, {}]]]}, {"class_name": "Activation", "config": {"name": "conv4_block5_0_relu", "trainable": false, "dtype": "float32", "activation": "relu"}, "name": "conv4_block5_0_relu", "inbound_nodes": [[["conv4_block5_0_bn", 0, 0, {}]]]}, {"class_name": "Conv2D", "config": {"name": "conv4_block5_1_conv", "trainable": false, "dtype": "float32", "filters": 128, "kernel_size": [1, 1], "strides": [1, 1], "padding": "valid", "data_format": "channels_last", "dilation_rate": [1, 1], "groups": 1, "activation": "linear", "use_bias": false, "kernel_initializer": {"module": "keras.initializers", "class_name": "GlorotUniform", "config": {"seed": null}, "registered_name": null}, "bias_initializer": {"module": "keras.initializers", "class_name": "Zeros", "config": {}, "registered_name": null}, "kernel_regularizer": null, "bias_regularizer": null, "activity_regularizer": null, "kernel_constraint": null, "bias_constraint": null}, "name": "conv4_block5_1_conv", "inbound_nodes": [[["conv4_block5_0_relu", 0, 0, {}]]]}, {"class_name": "BatchNormalization", "config": {"name": "conv4_block5_1_bn", "trainable": false, "dtype": "float32", "axis": [3], "momentum": 0.99, "epsilon": 1.001e-05, "center": true, "scale": true, "beta_initializer": {"module": "keras.initializers", "class_name": "Zeros", "config": {}, "registered_name": null}, "gamma_initializer": {"module": "keras.initializers", "class_name": "Ones", "config": {}, "registered_name": null}, "moving_mean_initializer": {"module": "keras.initializers", "class_name": "Zeros", "config": {}, "registered_name": null}, "moving_variance_initializer": {"module": "keras.initializers", "class_name": "Ones", "config": {}, "registered_name": null}, "beta_regularizer": null, "gamma_regularizer": null, "beta_constraint": null, "gamma_constraint": null}, "name": "conv4_block5_1_bn", "inbound_nodes": [[["conv4_block5_1_conv", 0, 0, {}]]]}, {"class_name": "Activation", "config": {"name": "conv4_block5_1_relu", "trainable": false, "dtype": "float32", "activation": "relu"}, "name": "conv4_block5_1_relu", "inbound_nodes": [[["conv4_block5_1_bn", 0, 0, {}]]]}, {"class_name": "Conv2D", "config": {"name": "conv4_block5_2_conv", "trainable": false, "dtype": "float32", "filters": 32, "kernel_size": [3, 3], "strides": [1, 1], "padding": "same", "data_format": "channels_last", "dilation_rate": [1, 1], "groups": 1, "activation": "linear", "use_bias": false, "kernel_initializer": {"module": "keras.initializers", "class_name": "GlorotUniform", "config": {"seed": null}, "registered_name": null}, "bias_initializer": {"module": "keras.initializers", "class_name": "Zeros", "config": {}, "registered_name": null}, "kernel_regularizer": null, "bias_regularizer": null, "activity_regularizer": null, "kernel_constraint": null, "bias_constraint": null}, "name": "conv4_block5_2_conv", "inbound_nodes": [[["conv4_block5_1_relu", 0, 0, {}]]]}, {"class_name": "Concatenate", "config": {"name": "conv4_block5_concat", "trainable": false, "dtype": "float32", "axis": 3}, "name": "conv4_block5_concat", "inbound_nodes": [[["conv4_block4_concat", 0, 0, {}], ["conv4_block5_2_conv", 0, 0, {}]]]}, {"class_name": "BatchNormalization", "config": {"name": "conv4_block6_0_bn", "trainable": false, "dtype": "float32", "axis": [3], "momentum": 0.99, "epsilon": 1.001e-05, "center": true, "scale": true, "beta_initializer": {"module": "keras.initializers", "class_name": "Zeros", "config": {}, "registered_name": null}, "gamma_initializer": {"module": "keras.initializers", "class_name": "Ones", "config": {}, "registered_name": null}, "moving_mean_initializer": {"module": "keras.initializers", "class_name": "Zeros", "config": {}, "registered_name": null}, "moving_variance_initializer": {"module": "keras.initializers", "class_name": "Ones", "config": {}, "registered_name": null}, "beta_regularizer": null, "gamma_regularizer": null, "beta_constraint": null, "gamma_constraint": null}, "name": "conv4_block6_0_bn", "inbound_nodes": [[["conv4_block5_concat", 0, 0, {}]]]}, {"class_name": "Activation", "config": {"name": "conv4_block6_0_relu", "trainable": false, "dtype": "float32", "activation": "relu"}, "name": "conv4_block6_0_relu", "inbound_nodes": [[["conv4_block6_0_bn", 0, 0, {}]]]}, {"class_name": "Conv2D", "config": {"name": "conv4_block6_1_conv", "trainable": false, "dtype": "float32", "filters": 128, "kernel_size": [1, 1], "strides": [1, 1], "padding": "valid", "data_format": "channels_last", "dilation_rate": [1, 1], "groups": 1, "activation": "linear", "use_bias": false, "kernel_initializer": {"module": "keras.initializers", "class_name": "GlorotUniform", "config": {"seed": null}, "registered_name": null}, "bias_initializer": {"module": "keras.initializers", "class_name": "Zeros", "config": {}, "registered_name": null}, "kernel_regularizer": null, "bias_regularizer": null, "activity_regularizer": null, "kernel_constraint": null, "bias_constraint": null}, "name": "conv4_block6_1_conv", "inbound_nodes": [[["conv4_block6_0_relu", 0, 0, {}]]]}, {"class_name": "BatchNormalization", "config": {"name": "conv4_block6_1_bn", "trainable": false, "dtype": "float32", "axis": [3], "momentum": 0.99, "epsilon": 1.001e-05, "center": true, "scale": true, "beta_initializer": {"module": "keras.initializers", "class_name": "Zeros", "config": {}, "registered_name": null}, "gamma_initializer": {"module": "keras.initializers", "class_name": "Ones", "config": {}, "registered_name": null}, "moving_mean_initializer": {"module": "keras.initializers", "class_name": "Zeros", "config": {}, "registered_name": null}, "moving_variance_initializer": {"module": "keras.initializers", "class_name": "Ones", "config": {}, "registered_name": null}, "beta_regularizer": null, "gamma_regularizer": null, "beta_constraint": null, "gamma_constraint": null}, "name": "conv4_block6_1_bn", "inbound_nodes": [[["conv4_block6_1_conv", 0, 0, {}]]]}, {"class_name": "Activation", "config": {"name": "conv4_block6_1_relu", "trainable": false, "dtype": "float32", "activation": "relu"}, "name": "conv4_block6_1_relu", "inbound_nodes": [[["conv4_block6_1_bn", 0, 0, {}]]]}, {"class_name": "Conv2D", "config": {"name": "conv4_block6_2_conv", "trainable": false, "dtype": "float32", "filters": 32, "kernel_size": [3, 3], "strides": [1, 1], "padding": "same", "data_format": "channels_last", "dilation_rate": [1, 1], "groups": 1, "activation": "linear", "use_bias": false, "kernel_initializer": {"module": "keras.initializers", "class_name": "GlorotUniform", "config": {"seed": null}, "registered_name": null}, "bias_initializer": {"module": "keras.initializers", "class_name": "Zeros", "config": {}, "registered_name": null}, "kernel_regularizer": null, "bias_regularizer": null, "activity_regularizer": null, "kernel_constraint": null, "bias_constraint": null}, "name": "conv4_block6_2_conv", "inbound_nodes": [[["conv4_block6_1_relu", 0, 0, {}]]]}, {"class_name": "Concatenate", "config": {"name": "conv4_block6_concat", "trainable": false, "dtype": "float32", "axis": 3}, "name": "conv4_block6_concat", "inbound_nodes": [[["conv4_block5_concat", 0, 0, {}], ["conv4_block6_2_conv", 0, 0, {}]]]}, {"class_name": "BatchNormalization", "config": {"name": "conv4_block7_0_bn", "trainable": false, "dtype": "float32", "axis": [3], "momentum": 0.99, "epsilon": 1.001e-05, "center": true, "scale": true, "beta_initializer": {"module": "keras.initializers", "class_name": "Zeros", "config": {}, "registered_name": null}, "gamma_initializer": {"module": "keras.initializers", "class_name": "Ones", "config": {}, "registered_name": null}, "moving_mean_initializer": {"module": "keras.initializers", "class_name": "Zeros", "config": {}, "registered_name": null}, "moving_variance_initializer": {"module": "keras.initializers", "class_name": "Ones", "config": {}, "registered_name": null}, "beta_regularizer": null, "gamma_regularizer": null, "beta_constraint": null, "gamma_constraint": null}, "name": "conv4_block7_0_bn", "inbound_nodes": [[["conv4_block6_concat", 0, 0, {}]]]}, {"class_name": "Activation", "config": {"name": "conv4_block7_0_relu", "trainable": false, "dtype": "float32", "activation": "relu"}, "name": "conv4_block7_0_relu", "inbound_nodes": [[["conv4_block7_0_bn", 0, 0, {}]]]}, {"class_name": "Conv2D", "config": {"name": "conv4_block7_1_conv", "trainable": false, "dtype": "float32", "filters": 128, "kernel_size": [1, 1], "strides": [1, 1], "padding": "valid", "data_format": "channels_last", "dilation_rate": [1, 1], "groups": 1, "activation": "linear", "use_bias": false, "kernel_initializer": {"module": "keras.initializers", "class_name": "GlorotUniform", "config": {"seed": null}, "registered_name": null}, "bias_initializer": {"module": "keras.initializers", "class_name": "Zeros", "config": {}, "registered_name": null}, "kernel_regularizer": null, "bias_regularizer": null, "activity_regularizer": null, "kernel_constraint": null, "bias_constraint": null}, "name": "conv4_block7_1_conv", "inbound_nodes": [[["conv4_block7_0_relu", 0, 0, {}]]]}, {"class_name": "BatchNormalization", "config": {"name": "conv4_block7_1_bn", "trainable": false, "dtype": "float32", "axis": [3], "momentum": 0.99, "epsilon": 1.001e-05, "center": true, "scale": true, "beta_initializer": {"module": "keras.initializers", "class_name": "Zeros", "config": {}, "registered_name": null}, "gamma_initializer": {"module": "keras.initializers", "class_name": "Ones", "config": {}, "registered_name": null}, "moving_mean_initializer": {"module": "keras.initializers", "class_name": "Zeros", "config": {}, "registered_name": null}, "moving_variance_initializer": {"module": "keras.initializers", "class_name": "Ones", "config": {}, "registered_name": null}, "beta_regularizer": null, "gamma_regularizer": null, "beta_constraint": null, "gamma_constraint": null}, "name": "conv4_block7_1_bn", "inbound_nodes": [[["conv4_block7_1_conv", 0, 0, {}]]]}, {"class_name": "Activation", "config": {"name": "conv4_block7_1_relu", "trainable": false, "dtype": "float32", "activation": "relu"}, "name": "conv4_block7_1_relu", "inbound_nodes": [[["conv4_block7_1_bn", 0, 0, {}]]]}, {"class_name": "Conv2D", "config": {"name": "conv4_block7_2_conv", "trainable": false, "dtype": "float32", "filters": 32, "kernel_size": [3, 3], "strides": [1, 1], "padding": "same", "data_format": "channels_last", "dilation_rate": [1, 1], "groups": 1, "activation": "linear", "use_bias": false, "kernel_initializer": {"module": "keras.initializers", "class_name": "GlorotUniform", "config": {"seed": null}, "registered_name": null}, "bias_initializer": {"module": "keras.initializers", "class_name": "Zeros", "config": {}, "registered_name": null}, "kernel_regularizer": null, "bias_regularizer": null, "activity_regularizer": null, "kernel_constraint": null, "bias_constraint": null}, "name": "conv4_block7_2_conv", "inbound_nodes": [[["conv4_block7_1_relu", 0, 0, {}]]]}, {"class_name": "Concatenate", "config": {"name": "conv4_block7_concat", "trainable": false, "dtype": "float32", "axis": 3}, "name": "conv4_block7_concat", "inbound_nodes": [[["conv4_block6_concat", 0, 0, {}], ["conv4_block7_2_conv", 0, 0, {}]]]}, {"class_name": "BatchNormalization", "config": {"name": "conv4_block8_0_bn", "trainable": false, "dtype": "float32", "axis": [3], "momentum": 0.99, "epsilon": 1.001e-05, "center": true, "scale": true, "beta_initializer": {"module": "keras.initializers", "class_name": "Zeros", "config": {}, "registered_name": null}, "gamma_initializer": {"module": "keras.initializers", "class_name": "Ones", "config": {}, "registered_name": null}, "moving_mean_initializer": {"module": "keras.initializers", "class_name": "Zeros", "config": {}, "registered_name": null}, "moving_variance_initializer": {"module": "keras.initializers", "class_name": "Ones", "config": {}, "registered_name": null}, "beta_regularizer": null, "gamma_regularizer": null, "beta_constraint": null, "gamma_constraint": null}, "name": "conv4_block8_0_bn", "inbound_nodes": [[["conv4_block7_concat", 0, 0, {}]]]}, {"class_name": "Activation", "config": {"name": "conv4_block8_0_relu", "trainable": false, "dtype": "float32", "activation": "relu"}, "name": "conv4_block8_0_relu", "inbound_nodes": [[["conv4_block8_0_bn", 0, 0, {}]]]}, {"class_name": "Conv2D", "config": {"name": "conv4_block8_1_conv", "trainable": false, "dtype": "float32", "filters": 128, "kernel_size": [1, 1], "strides": [1, 1], "padding": "valid", "data_format": "channels_last", "dilation_rate": [1, 1], "groups": 1, "activation": "linear", "use_bias": false, "kernel_initializer": {"module": "keras.initializers", "class_name": "GlorotUniform", "config": {"seed": null}, "registered_name": null}, "bias_initializer": {"module": "keras.initializers", "class_name": "Zeros", "config": {}, "registered_name": null}, "kernel_regularizer": null, "bias_regularizer": null, "activity_regularizer": null, "kernel_constraint": null, "bias_constraint": null}, "name": "conv4_block8_1_conv", "inbound_nodes": [[["conv4_block8_0_relu", 0, 0, {}]]]}, {"class_name": "BatchNormalization", "config": {"name": "conv4_block8_1_bn", "trainable": false, "dtype": "float32", "axis": [3], "momentum": 0.99, "epsilon": 1.001e-05, "center": true, "scale": true, "beta_initializer": {"module": "keras.initializers", "class_name": "Zeros", "config": {}, "registered_name": null}, "gamma_initializer": {"module": "keras.initializers", "class_name": "Ones", "config": {}, "registered_name": null}, "moving_mean_initializer": {"module": "keras.initializers", "class_name": "Zeros", "config": {}, "registered_name": null}, "moving_variance_initializer": {"module": "keras.initializers", "class_name": "Ones", "config": {}, "registered_name": null}, "beta_regularizer": null, "gamma_regularizer": null, "beta_constraint": null, "gamma_constraint": null}, "name": "conv4_block8_1_bn", "inbound_nodes": [[["conv4_block8_1_conv", 0, 0, {}]]]}, {"class_name": "Activation", "config": {"name": "conv4_block8_1_relu", "trainable": false, "dtype": "float32", "activation": "relu"}, "name": "conv4_block8_1_relu", "inbound_nodes": [[["conv4_block8_1_bn", 0, 0, {}]]]}, {"class_name": "Conv2D", "config": {"name": "conv4_block8_2_conv", "trainable": false, "dtype": "float32", "filters": 32, "kernel_size": [3, 3], "strides": [1, 1], "padding": "same", "data_format": "channels_last", "dilation_rate": [1, 1], "groups": 1, "activation": "linear", "use_bias": false, "kernel_initializer": {"module": "keras.initializers", "class_name": "GlorotUniform", "config": {"seed": null}, "registered_name": null}, "bias_initializer": {"module": "keras.initializers", "class_name": "Zeros", "config": {}, "registered_name": null}, "kernel_regularizer": null, "bias_regularizer": null, "activity_regularizer": null, "kernel_constraint": null, "bias_constraint": null}, "name": "conv4_block8_2_conv", "inbound_nodes": [[["conv4_block8_1_relu", 0, 0, {}]]]}, {"class_name": "Concatenate", "config": {"name": "conv4_block8_concat", "trainable": false, "dtype": "float32", "axis": 3}, "name": "conv4_block8_concat", "inbound_nodes": [[["conv4_block7_concat", 0, 0, {}], ["conv4_block8_2_conv", 0, 0, {}]]]}, {"class_name": "BatchNormalization", "config": {"name": "conv4_block9_0_bn", "trainable": false, "dtype": "float32", "axis": [3], "momentum": 0.99, "epsilon": 1.001e-05, "center": true, "scale": true, "beta_initializer": {"module": "keras.initializers", "class_name": "Zeros", "config": {}, "registered_name": null}, "gamma_initializer": {"module": "keras.initializers", "class_name": "Ones", "config": {}, "registered_name": null}, "moving_mean_initializer": {"module": "keras.initializers", "class_name": "Zeros", "config": {}, "registered_name": null}, "moving_variance_initializer": {"module": "keras.initializers", "class_name": "Ones", "config": {}, "registered_name": null}, "beta_regularizer": null, "gamma_regularizer": null, "beta_constraint": null, "gamma_constraint": null}, "name": "conv4_block9_0_bn", "inbound_nodes": [[["conv4_block8_concat", 0, 0, {}]]]}, {"class_name": "Activation", "config": {"name": "conv4_block9_0_relu", "trainable": false, "dtype": "float32", "activation": "relu"}, "name": "conv4_block9_0_relu", "inbound_nodes": [[["conv4_block9_0_bn", 0, 0, {}]]]}, {"class_name": "Conv2D", "config": {"name": "conv4_block9_1_conv", "trainable": false, "dtype": "float32", "filters": 128, "kernel_size": [1, 1], "strides": [1, 1], "padding": "valid", "data_format": "channels_last", "dilation_rate": [1, 1], "groups": 1, "activation": "linear", "use_bias": false, "kernel_initializer": {"module": "keras.initializers", "class_name": "GlorotUniform", "config": {"seed": null}, "registered_name": null}, "bias_initializer": {"module": "keras.initializers", "class_name": "Zeros", "config": {}, "registered_name": null}, "kernel_regularizer": null, "bias_regularizer": null, "activity_regularizer": null, "kernel_constraint": null, "bias_constraint": null}, "name": "conv4_block9_1_conv", "inbound_nodes": [[["conv4_block9_0_relu", 0, 0, {}]]]}, {"class_name": "BatchNormalization", "config": {"name": "conv4_block9_1_bn", "trainable": false, "dtype": "float32", "axis": [3], "momentum": 0.99, "epsilon": 1.001e-05, "center": true, "scale": true, "beta_initializer": {"module": "keras.initializers", "class_name": "Zeros", "config": {}, "registered_name": null}, "gamma_initializer": {"module": "keras.initializers", "class_name": "Ones", "config": {}, "registered_name": null}, "moving_mean_initializer": {"module": "keras.initializers", "class_name": "Zeros", "config": {}, "registered_name": null}, "moving_variance_initializer": {"module": "keras.initializers", "class_name": "Ones", "config": {}, "registered_name": null}, "beta_regularizer": null, "gamma_regularizer": null, "beta_constraint": null, "gamma_constraint": null}, "name": "conv4_block9_1_bn", "inbound_nodes": [[["conv4_block9_1_conv", 0, 0, {}]]]}, {"class_name": "Activation", "config": {"name": "conv4_block9_1_relu", "trainable": false, "dtype": "float32", "activation": "relu"}, "name": "conv4_block9_1_relu", "inbound_nodes": [[["conv4_block9_1_bn", 0, 0, {}]]]}, {"class_name": "Conv2D", "config": {"name": "conv4_block9_2_conv", "trainable": false, "dtype": "float32", "filters": 32, "kernel_size": [3, 3], "strides": [1, 1], "padding": "same", "data_format": "channels_last", "dilation_rate": [1, 1], "groups": 1, "activation": "linear", "use_bias": false, "kernel_initializer": {"module": "keras.initializers", "class_name": "GlorotUniform", "config": {"seed": null}, "registered_name": null}, "bias_initializer": {"module": "keras.initializers", "class_name": "Zeros", "config": {}, "registered_name": null}, "kernel_regularizer": null, "bias_regularizer": null, "activity_regularizer": null, "kernel_constraint": null, "bias_constraint": null}, "name": "conv4_block9_2_conv", "inbound_nodes": [[["conv4_block9_1_relu", 0, 0, {}]]]}, {"class_name": "Concatenate", "config": {"name": "conv4_block9_concat", "trainable": false, "dtype": "float32", "axis": 3}, "name": "conv4_block9_concat", "inbound_nodes": [[["conv4_block8_concat", 0, 0, {}], ["conv4_block9_2_conv", 0, 0, {}]]]}, {"class_name": "BatchNormalization", "config": {"name": "conv4_block10_0_bn", "trainable": false, "dtype": "float32", "axis": [3], "momentum": 0.99, "epsilon": 1.001e-05, "center": true, "scale": true, "beta_initializer": {"module": "keras.initializers", "class_name": "Zeros", "config": {}, "registered_name": null}, "gamma_initializer": {"module": "keras.initializers", "class_name": "Ones", "config": {}, "registered_name": null}, "moving_mean_initializer": {"module": "keras.initializers", "class_name": "Zeros", "config": {}, "registered_name": null}, "moving_variance_initializer": {"module": "keras.initializers", "class_name": "Ones", "config": {}, "registered_name": null}, "beta_regularizer": null, "gamma_regularizer": null, "beta_constraint": null, "gamma_constraint": null}, "name": "conv4_block10_0_bn", "inbound_nodes": [[["conv4_block9_concat", 0, 0, {}]]]}, {"class_name": "Activation", "config": {"name": "conv4_block10_0_relu", "trainable": false, "dtype": "float32", "activation": "relu"}, "name": "conv4_block10_0_relu", "inbound_nodes": [[["conv4_block10_0_bn", 0, 0, {}]]]}, {"class_name": "Conv2D", "config": {"name": "conv4_block10_1_conv", "trainable": false, "dtype": "float32", "filters": 128, "kernel_size": [1, 1], "strides": [1, 1], "padding": "valid", "data_format": "channels_last", "dilation_rate": [1, 1], "groups": 1, "activation": "linear", "use_bias": false, "kernel_initializer": {"module": "keras.initializers", "class_name": "GlorotUniform", "config": {"seed": null}, "registered_name": null}, "bias_initializer": {"module": "keras.initializers", "class_name": "Zeros", "config": {}, "registered_name": null}, "kernel_regularizer": null, "bias_regularizer": null, "activity_regularizer": null, "kernel_constraint": null, "bias_constraint": null}, "name": "conv4_block10_1_conv", "inbound_nodes": [[["conv4_block10_0_relu", 0, 0, {}]]]}, {"class_name": "BatchNormalization", "config": {"name": "conv4_block10_1_bn", "trainable": false, "dtype": "float32", "axis": [3], "momentum": 0.99, "epsilon": 1.001e-05, "center": true, "scale": true, "beta_initializer": {"module": "keras.initializers", "class_name": "Zeros", "config": {}, "registered_name": null}, "gamma_initializer": {"module": "keras.initializers", "class_name": "Ones", "config": {}, "registered_name": null}, "moving_mean_initializer": {"module": "keras.initializers", "class_name": "Zeros", "config": {}, "registered_name": null}, "moving_variance_initializer": {"module": "keras.initializers", "class_name": "Ones", "config": {}, "registered_name": null}, "beta_regularizer": null, "gamma_regularizer": null, "beta_constraint": null, "gamma_constraint": null}, "name": "conv4_block10_1_bn", "inbound_nodes": [[["conv4_block10_1_conv", 0, 0, {}]]]}, {"class_name": "Activation", "config": {"name": "conv4_block10_1_relu", "trainable": false, "dtype": "float32", "activation": "relu"}, "name": "conv4_block10_1_relu", "inbound_nodes": [[["conv4_block10_1_bn", 0, 0, {}]]]}, {"class_name": "Conv2D", "config": {"name": "conv4_block10_2_conv", "trainable": false, "dtype": "float32", "filters": 32, "kernel_size": [3, 3], "strides": [1, 1], "padding": "same", "data_format": "channels_last", "dilation_rate": [1, 1], "groups": 1, "activation": "linear", "use_bias": false, "kernel_initializer": {"module": "keras.initializers", "class_name": "GlorotUniform", "config": {"seed": null}, "registered_name": null}, "bias_initializer": {"module": "keras.initializers", "class_name": "Zeros", "config": {}, "registered_name": null}, "kernel_regularizer": null, "bias_regularizer": null, "activity_regularizer": null, "kernel_constraint": null, "bias_constraint": null}, "name": "conv4_block10_2_conv", "inbound_nodes": [[["conv4_block10_1_relu", 0, 0, {}]]]}, {"class_name": "Concatenate", "config": {"name": "conv4_block10_concat", "trainable": false, "dtype": "float32", "axis": 3}, "name": "conv4_block10_concat", "inbound_nodes": [[["conv4_block9_concat", 0, 0, {}], ["conv4_block10_2_conv", 0, 0, {}]]]}, {"class_name": "BatchNormalization", "config": {"name": "conv4_block11_0_bn", "trainable": false, "dtype": "float32", "axis": [3], "momentum": 0.99, "epsilon": 1.001e-05, "center": true, "scale": true, "beta_initializer": {"module": "keras.initializers", "class_name": "Zeros", "config": {}, "registered_name": null}, "gamma_initializer": {"module": "keras.initializers", "class_name": "Ones", "config": {}, "registered_name": null}, "moving_mean_initializer": {"module": "keras.initializers", "class_name": "Zeros", "config": {}, "registered_name": null}, "moving_variance_initializer": {"module": "keras.initializers", "class_name": "Ones", "config": {}, "registered_name": null}, "beta_regularizer": null, "gamma_regularizer": null, "beta_constraint": null, "gamma_constraint": null}, "name": "conv4_block11_0_bn", "inbound_nodes": [[["conv4_block10_concat", 0, 0, {}]]]}, {"class_name": "Activation", "config": {"name": "conv4_block11_0_relu", "trainable": false, "dtype": "float32", "activation": "relu"}, "name": "conv4_block11_0_relu", "inbound_nodes": [[["conv4_block11_0_bn", 0, 0, {}]]]}, {"class_name": "Conv2D", "config": {"name": "conv4_block11_1_conv", "trainable": false, "dtype": "float32", "filters": 128, "kernel_size": [1, 1], "strides": [1, 1], "padding": "valid", "data_format": "channels_last", "dilation_rate": [1, 1], "groups": 1, "activation": "linear", "use_bias": false, "kernel_initializer": {"module": "keras.initializers", "class_name": "GlorotUniform", "config": {"seed": null}, "registered_name": null}, "bias_initializer": {"module": "keras.initializers", "class_name": "Zeros", "config": {}, "registered_name": null}, "kernel_regularizer": null, "bias_regularizer": null, "activity_regularizer": null, "kernel_constraint": null, "bias_constraint": null}, "name": "conv4_block11_1_conv", "inbound_nodes": [[["conv4_block11_0_relu", 0, 0, {}]]]}, {"class_name": "BatchNormalization", "config": {"name": "conv4_block11_1_bn", "trainable": false, "dtype": "float32", "axis": [3], "momentum": 0.99, "epsilon": 1.001e-05, "center": true, "scale": true, "beta_initializer": {"module": "keras.initializers", "class_name": "Zeros", "config": {}, "registered_name": null}, "gamma_initializer": {"module": "keras.initializers", "class_name": "Ones", "config": {}, "registered_name": null}, "moving_mean_initializer": {"module": "keras.initializers", "class_name": "Zeros", "config": {}, "registered_name": null}, "moving_variance_initializer": {"module": "keras.initializers", "class_name": "Ones", "config": {}, "registered_name": null}, "beta_regularizer": null, "gamma_regularizer": null, "beta_constraint": null, "gamma_constraint": null}, "name": "conv4_block11_1_bn", "inbound_nodes": [[["conv4_block11_1_conv", 0, 0, {}]]]}, {"class_name": "Activation", "config": {"name": "conv4_block11_1_relu", "trainable": false, "dtype": "float32", "activation": "relu"}, "name": "conv4_block11_1_relu", "inbound_nodes": [[["conv4_block11_1_bn", 0, 0, {}]]]}, {"class_name": "Conv2D", "config": {"name": "conv4_block11_2_conv", "trainable": false, "dtype": "float32", "filters": 32, "kernel_size": [3, 3], "strides": [1, 1], "padding": "same", "data_format": "channels_last", "dilation_rate": [1, 1], "groups": 1, "activation": "linear", "use_bias": false, "kernel_initializer": {"module": "keras.initializers", "class_name": "GlorotUniform", "config": {"seed": null}, "registered_name": null}, "bias_initializer": {"module": "keras.initializers", "class_name": "Zeros", "config": {}, "registered_name": null}, "kernel_regularizer": null, "bias_regularizer": null, "activity_regularizer": null, "kernel_constraint": null, "bias_constraint": null}, "name": "conv4_block11_2_conv", "inbound_nodes": [[["conv4_block11_1_relu", 0, 0, {}]]]}, {"class_name": "Concatenate", "config": {"name": "conv4_block11_concat", "trainable": false, "dtype": "float32", "axis": 3}, "name": "conv4_block11_concat", "inbound_nodes": [[["conv4_block10_concat", 0, 0, {}], ["conv4_block11_2_conv", 0, 0, {}]]]}, {"class_name": "BatchNormalization", "config": {"name": "conv4_block12_0_bn", "trainable": false, "dtype": "float32", "axis": [3], "momentum": 0.99, "epsilon": 1.001e-05, "center": true, "scale": true, "beta_initializer": {"module": "keras.initializers", "class_name": "Zeros", "config": {}, "registered_name": null}, "gamma_initializer": {"module": "keras.initializers", "class_name": "Ones", "config": {}, "registered_name": null}, "moving_mean_initializer": {"module": "keras.initializers", "class_name": "Zeros", "config": {}, "registered_name": null}, "moving_variance_initializer": {"module": "keras.initializers", "class_name": "Ones", "config": {}, "registered_name": null}, "beta_regularizer": null, "gamma_regularizer": null, "beta_constraint": null, "gamma_constraint": null}, "name": "conv4_block12_0_bn", "inbound_nodes": [[["conv4_block11_concat", 0, 0, {}]]]}, {"class_name": "Activation", "config": {"name": "conv4_block12_0_relu", "trainable": false, "dtype": "float32", "activation": "relu"}, "name": "conv4_block12_0_relu", "inbound_nodes": [[["conv4_block12_0_bn", 0, 0, {}]]]}, {"class_name": "Conv2D", "config": {"name": "conv4_block12_1_conv", "trainable": false, "dtype": "float32", "filters": 128, "kernel_size": [1, 1], "strides": [1, 1], "padding": "valid", "data_format": "channels_last", "dilation_rate": [1, 1], "groups": 1, "activation": "linear", "use_bias": false, "kernel_initializer": {"module": "keras.initializers", "class_name": "GlorotUniform", "config": {"seed": null}, "registered_name": null}, "bias_initializer": {"module": "keras.initializers", "class_name": "Zeros", "config": {}, "registered_name": null}, "kernel_regularizer": null, "bias_regularizer": null, "activity_regularizer": null, "kernel_constraint": null, "bias_constraint": null}, "name": "conv4_block12_1_conv", "inbound_nodes": [[["conv4_block12_0_relu", 0, 0, {}]]]}, {"class_name": "BatchNormalization", "config": {"name": "conv4_block12_1_bn", "trainable": false, "dtype": "float32", "axis": [3], "momentum": 0.99, "epsilon": 1.001e-05, "center": true, "scale": true, "beta_initializer": {"module": "keras.initializers", "class_name": "Zeros", "config": {}, "registered_name": null}, "gamma_initializer": {"module": "keras.initializers", "class_name": "Ones", "config": {}, "registered_name": null}, "moving_mean_initializer": {"module": "keras.initializers", "class_name": "Zeros", "config": {}, "registered_name": null}, "moving_variance_initializer": {"module": "keras.initializers", "class_name": "Ones", "config": {}, "registered_name": null}, "beta_regularizer": null, "gamma_regularizer": null, "beta_constraint": null, "gamma_constraint": null}, "name": "conv4_block12_1_bn", "inbound_nodes": [[["conv4_block12_1_conv", 0, 0, {}]]]}, {"class_name": "Activation", "config": {"name": "conv4_block12_1_relu", "trainable": false, "dtype": "float32", "activation": "relu"}, "name": "conv4_block12_1_relu", "inbound_nodes": [[["conv4_block12_1_bn", 0, 0, {}]]]}, {"class_name": "Conv2D", "config": {"name": "conv4_block12_2_conv", "trainable": false, "dtype": "float32", "filters": 32, "kernel_size": [3, 3], "strides": [1, 1], "padding": "same", "data_format": "channels_last", "dilation_rate": [1, 1], "groups": 1, "activation": "linear", "use_bias": false, "kernel_initializer": {"module": "keras.initializers", "class_name": "GlorotUniform", "config": {"seed": null}, "registered_name": null}, "bias_initializer": {"module": "keras.initializers", "class_name": "Zeros", "config": {}, "registered_name": null}, "kernel_regularizer": null, "bias_regularizer": null, "activity_regularizer": null, "kernel_constraint": null, "bias_constraint": null}, "name": "conv4_block12_2_conv", "inbound_nodes": [[["conv4_block12_1_relu", 0, 0, {}]]]}, {"class_name": "Concatenate", "config": {"name": "conv4_block12_concat", "trainable": false, "dtype": "float32", "axis": 3}, "name": "conv4_block12_concat", "inbound_nodes": [[["conv4_block11_concat", 0, 0, {}], ["conv4_block12_2_conv", 0, 0, {}]]]}, {"class_name": "BatchNormalization", "config": {"name": "conv4_block13_0_bn", "trainable": false, "dtype": "float32", "axis": [3], "momentum": 0.99, "epsilon": 1.001e-05, "center": true, "scale": true, "beta_initializer": {"module": "keras.initializers", "class_name": "Zeros", "config": {}, "registered_name": null}, "gamma_initializer": {"module": "keras.initializers", "class_name": "Ones", "config": {}, "registered_name": null}, "moving_mean_initializer": {"module": "keras.initializers", "class_name": "Zeros", "config": {}, "registered_name": null}, "moving_variance_initializer": {"module": "keras.initializers", "class_name": "Ones", "config": {}, "registered_name": null}, "beta_regularizer": null, "gamma_regularizer": null, "beta_constraint": null, "gamma_constraint": null}, "name": "conv4_block13_0_bn", "inbound_nodes": [[["conv4_block12_concat", 0, 0, {}]]]}, {"class_name": "Activation", "config": {"name": "conv4_block13_0_relu", "trainable": false, "dtype": "float32", "activation": "relu"}, "name": "conv4_block13_0_relu", "inbound_nodes": [[["conv4_block13_0_bn", 0, 0, {}]]]}, {"class_name": "Conv2D", "config": {"name": "conv4_block13_1_conv", "trainable": false, "dtype": "float32", "filters": 128, "kernel_size": [1, 1], "strides": [1, 1], "padding": "valid", "data_format": "channels_last", "dilation_rate": [1, 1], "groups": 1, "activation": "linear", "use_bias": false, "kernel_initializer": {"module": "keras.initializers", "class_name": "GlorotUniform", "config": {"seed": null}, "registered_name": null}, "bias_initializer": {"module": "keras.initializers", "class_name": "Zeros", "config": {}, "registered_name": null}, "kernel_regularizer": null, "bias_regularizer": null, "activity_regularizer": null, "kernel_constraint": null, "bias_constraint": null}, "name": "conv4_block13_1_conv", "inbound_nodes": [[["conv4_block13_0_relu", 0, 0, {}]]]}, {"class_name": "BatchNormalization", "config": {"name": "conv4_block13_1_bn", "trainable": false, "dtype": "float32", "axis": [3], "momentum": 0.99, "epsilon": 1.001e-05, "center": true, "scale": true, "beta_initializer": {"module": "keras.initializers", "class_name": "Zeros", "config": {}, "registered_name": null}, "gamma_initializer": {"module": "keras.initializers", "class_name": "Ones", "config": {}, "registered_name": null}, "moving_mean_initializer": {"module": "keras.initializers", "class_name": "Zeros", "config": {}, "registered_name": null}, "moving_variance_initializer": {"module": "keras.initializers", "class_name": "Ones", "config": {}, "registered_name": null}, "beta_regularizer": null, "gamma_regularizer": null, "beta_constraint": null, "gamma_constraint": null}, "name": "conv4_block13_1_bn", "inbound_nodes": [[["conv4_block13_1_conv", 0, 0, {}]]]}, {"class_name": "Activation", "config": {"name": "conv4_block13_1_relu", "trainable": false, "dtype": "float32", "activation": "relu"}, "name": "conv4_block13_1_relu", "inbound_nodes": [[["conv4_block13_1_bn", 0, 0, {}]]]}, {"class_name": "Conv2D", "config": {"name": "conv4_block13_2_conv", "trainable": false, "dtype": "float32", "filters": 32, "kernel_size": [3, 3], "strides": [1, 1], "padding": "same", "data_format": "channels_last", "dilation_rate": [1, 1], "groups": 1, "activation": "linear", "use_bias": false, "kernel_initializer": {"module": "keras.initializers", "class_name": "GlorotUniform", "config": {"seed": null}, "registered_name": null}, "bias_initializer": {"module": "keras.initializers", "class_name": "Zeros", "config": {}, "registered_name": null}, "kernel_regularizer": null, "bias_regularizer": null, "activity_regularizer": null, "kernel_constraint": null, "bias_constraint": null}, "name": "conv4_block13_2_conv", "inbound_nodes": [[["conv4_block13_1_relu", 0, 0, {}]]]}, {"class_name": "Concatenate", "config": {"name": "conv4_block13_concat", "trainable": false, "dtype": "float32", "axis": 3}, "name": "conv4_block13_concat", "inbound_nodes": [[["conv4_block12_concat", 0, 0, {}], ["conv4_block13_2_conv", 0, 0, {}]]]}, {"class_name": "BatchNormalization", "config": {"name": "conv4_block14_0_bn", "trainable": false, "dtype": "float32", "axis": [3], "momentum": 0.99, "epsilon": 1.001e-05, "center": true, "scale": true, "beta_initializer": {"module": "keras.initializers", "class_name": "Zeros", "config": {}, "registered_name": null}, "gamma_initializer": {"module": "keras.initializers", "class_name": "Ones", "config": {}, "registered_name": null}, "moving_mean_initializer": {"module": "keras.initializers", "class_name": "Zeros", "config": {}, "registered_name": null}, "moving_variance_initializer": {"module": "keras.initializers", "class_name": "Ones", "config": {}, "registered_name": null}, "beta_regularizer": null, "gamma_regularizer": null, "beta_constraint": null, "gamma_constraint": null}, "name": "conv4_block14_0_bn", "inbound_nodes": [[["conv4_block13_concat", 0, 0, {}]]]}, {"class_name": "Activation", "config": {"name": "conv4_block14_0_relu", "trainable": false, "dtype": "float32", "activation": "relu"}, "name": "conv4_block14_0_relu", "inbound_nodes": [[["conv4_block14_0_bn", 0, 0, {}]]]}, {"class_name": "Conv2D", "config": {"name": "conv4_block14_1_conv", "trainable": false, "dtype": "float32", "filters": 128, "kernel_size": [1, 1], "strides": [1, 1], "padding": "valid", "data_format": "channels_last", "dilation_rate": [1, 1], "groups": 1, "activation": "linear", "use_bias": false, "kernel_initializer": {"module": "keras.initializers", "class_name": "GlorotUniform", "config": {"seed": null}, "registered_name": null}, "bias_initializer": {"module": "keras.initializers", "class_name": "Zeros", "config": {}, "registered_name": null}, "kernel_regularizer": null, "bias_regularizer": null, "activity_regularizer": null, "kernel_constraint": null, "bias_constraint": null}, "name": "conv4_block14_1_conv", "inbound_nodes": [[["conv4_block14_0_relu", 0, 0, {}]]]}, {"class_name": "BatchNormalization", "config": {"name": "conv4_block14_1_bn", "trainable": false, "dtype": "float32", "axis": [3], "momentum": 0.99, "epsilon": 1.001e-05, "center": true, "scale": true, "beta_initializer": {"module": "keras.initializers", "class_name": "Zeros", "config": {}, "registered_name": null}, "gamma_initializer": {"module": "keras.initializers", "class_name": "Ones", "config": {}, "registered_name": null}, "moving_mean_initializer": {"module": "keras.initializers", "class_name": "Zeros", "config": {}, "registered_name": null}, "moving_variance_initializer": {"module": "keras.initializers", "class_name": "Ones", "config": {}, "registered_name": null}, "beta_regularizer": null, "gamma_regularizer": null, "beta_constraint": null, "gamma_constraint": null}, "name": "conv4_block14_1_bn", "inbound_nodes": [[["conv4_block14_1_conv", 0, 0, {}]]]}, {"class_name": "Activation", "config": {"name": "conv4_block14_1_relu", "trainable": false, "dtype": "float32", "activation": "relu"}, "name": "conv4_block14_1_relu", "inbound_nodes": [[["conv4_block14_1_bn", 0, 0, {}]]]}, {"class_name": "Conv2D", "config": {"name": "conv4_block14_2_conv", "trainable": false, "dtype": "float32", "filters": 32, "kernel_size": [3, 3], "strides": [1, 1], "padding": "same", "data_format": "channels_last", "dilation_rate": [1, 1], "groups": 1, "activation": "linear", "use_bias": false, "kernel_initializer": {"module": "keras.initializers", "class_name": "GlorotUniform", "config": {"seed": null}, "registered_name": null}, "bias_initializer": {"module": "keras.initializers", "class_name": "Zeros", "config": {}, "registered_name": null}, "kernel_regularizer": null, "bias_regularizer": null, "activity_regularizer": null, "kernel_constraint": null, "bias_constraint": null}, "name": "conv4_block14_2_conv", "inbound_nodes": [[["conv4_block14_1_relu", 0, 0, {}]]]}, {"class_name": "Concatenate", "config": {"name": "conv4_block14_concat", "trainable": false, "dtype": "float32", "axis": 3}, "name": "conv4_block14_concat", "inbound_nodes": [[["conv4_block13_concat", 0, 0, {}], ["conv4_block14_2_conv", 0, 0, {}]]]}, {"class_name": "BatchNormalization", "config": {"name": "conv4_block15_0_bn", "trainable": false, "dtype": "float32", "axis": [3], "momentum": 0.99, "epsilon": 1.001e-05, "center": true, "scale": true, "beta_initializer": {"module": "keras.initializers", "class_name": "Zeros", "config": {}, "registered_name": null}, "gamma_initializer": {"module": "keras.initializers", "class_name": "Ones", "config": {}, "registered_name": null}, "moving_mean_initializer": {"module": "keras.initializers", "class_name": "Zeros", "config": {}, "registered_name": null}, "moving_variance_initializer": {"module": "keras.initializers", "class_name": "Ones", "config": {}, "registered_name": null}, "beta_regularizer": null, "gamma_regularizer": null, "beta_constraint": null, "gamma_constraint": null}, "name": "conv4_block15_0_bn", "inbound_nodes": [[["conv4_block14_concat", 0, 0, {}]]]}, {"class_name": "Activation", "config": {"name": "conv4_block15_0_relu", "trainable": false, "dtype": "float32", "activation": "relu"}, "name": "conv4_block15_0_relu", "inbound_nodes": [[["conv4_block15_0_bn", 0, 0, {}]]]}, {"class_name": "Conv2D", "config": {"name": "conv4_block15_1_conv", "trainable": false, "dtype": "float32", "filters": 128, "kernel_size": [1, 1], "strides": [1, 1], "padding": "valid", "data_format": "channels_last", "dilation_rate": [1, 1], "groups": 1, "activation": "linear", "use_bias": false, "kernel_initializer": {"module": "keras.initializers", "class_name": "GlorotUniform", "config": {"seed": null}, "registered_name": null}, "bias_initializer": {"module": "keras.initializers", "class_name": "Zeros", "config": {}, "registered_name": null}, "kernel_regularizer": null, "bias_regularizer": null, "activity_regularizer": null, "kernel_constraint": null, "bias_constraint": null}, "name": "conv4_block15_1_conv", "inbound_nodes": [[["conv4_block15_0_relu", 0, 0, {}]]]}, {"class_name": "BatchNormalization", "config": {"name": "conv4_block15_1_bn", "trainable": false, "dtype": "float32", "axis": [3], "momentum": 0.99, "epsilon": 1.001e-05, "center": true, "scale": true, "beta_initializer": {"module": "keras.initializers", "class_name": "Zeros", "config": {}, "registered_name": null}, "gamma_initializer": {"module": "keras.initializers", "class_name": "Ones", "config": {}, "registered_name": null}, "moving_mean_initializer": {"module": "keras.initializers", "class_name": "Zeros", "config": {}, "registered_name": null}, "moving_variance_initializer": {"module": "keras.initializers", "class_name": "Ones", "config": {}, "registered_name": null}, "beta_regularizer": null, "gamma_regularizer": null, "beta_constraint": null, "gamma_constraint": null}, "name": "conv4_block15_1_bn", "inbound_nodes": [[["conv4_block15_1_conv", 0, 0, {}]]]}, {"class_name": "Activation", "config": {"name": "conv4_block15_1_relu", "trainable": false, "dtype": "float32", "activation": "relu"}, "name": "conv4_block15_1_relu", "inbound_nodes": [[["conv4_block15_1_bn", 0, 0, {}]]]}, {"class_name": "Conv2D", "config": {"name": "conv4_block15_2_conv", "trainable": false, "dtype": "float32", "filters": 32, "kernel_size": [3, 3], "strides": [1, 1], "padding": "same", "data_format": "channels_last", "dilation_rate": [1, 1], "groups": 1, "activation": "linear", "use_bias": false, "kernel_initializer": {"module": "keras.initializers", "class_name": "GlorotUniform", "config": {"seed": null}, "registered_name": null}, "bias_initializer": {"module": "keras.initializers", "class_name": "Zeros", "config": {}, "registered_name": null}, "kernel_regularizer": null, "bias_regularizer": null, "activity_regularizer": null, "kernel_constraint": null, "bias_constraint": null}, "name": "conv4_block15_2_conv", "inbound_nodes": [[["conv4_block15_1_relu", 0, 0, {}]]]}, {"class_name": "Concatenate", "config": {"name": "conv4_block15_concat", "trainable": false, "dtype": "float32", "axis": 3}, "name": "conv4_block15_concat", "inbound_nodes": [[["conv4_block14_concat", 0, 0, {}], ["conv4_block15_2_conv", 0, 0, {}]]]}, {"class_name": "BatchNormalization", "config": {"name": "conv4_block16_0_bn", "trainable": false, "dtype": "float32", "axis": [3], "momentum": 0.99, "epsilon": 1.001e-05, "center": true, "scale": true, "beta_initializer": {"module": "keras.initializers", "class_name": "Zeros", "config": {}, "registered_name": null}, "gamma_initializer": {"module": "keras.initializers", "class_name": "Ones", "config": {}, "registered_name": null}, "moving_mean_initializer": {"module": "keras.initializers", "class_name": "Zeros", "config": {}, "registered_name": null}, "moving_variance_initializer": {"module": "keras.initializers", "class_name": "Ones", "config": {}, "registered_name": null}, "beta_regularizer": null, "gamma_regularizer": null, "beta_constraint": null, "gamma_constraint": null}, "name": "conv4_block16_0_bn", "inbound_nodes": [[["conv4_block15_concat", 0, 0, {}]]]}, {"class_name": "Activation", "config": {"name": "conv4_block16_0_relu", "trainable": false, "dtype": "float32", "activation": "relu"}, "name": "conv4_block16_0_relu", "inbound_nodes": [[["conv4_block16_0_bn", 0, 0, {}]]]}, {"class_name": "Conv2D", "config": {"name": "conv4_block16_1_conv", "trainable": false, "dtype": "float32", "filters": 128, "kernel_size": [1, 1], "strides": [1, 1], "padding": "valid", "data_format": "channels_last", "dilation_rate": [1, 1], "groups": 1, "activation": "linear", "use_bias": false, "kernel_initializer": {"module": "keras.initializers", "class_name": "GlorotUniform", "config": {"seed": null}, "registered_name": null}, "bias_initializer": {"module": "keras.initializers", "class_name": "Zeros", "config": {}, "registered_name": null}, "kernel_regularizer": null, "bias_regularizer": null, "activity_regularizer": null, "kernel_constraint": null, "bias_constraint": null}, "name": "conv4_block16_1_conv", "inbound_nodes": [[["conv4_block16_0_relu", 0, 0, {}]]]}, {"class_name": "BatchNormalization", "config": {"name": "conv4_block16_1_bn", "trainable": false, "dtype": "float32", "axis": [3], "momentum": 0.99, "epsilon": 1.001e-05, "center": true, "scale": true, "beta_initializer": {"module": "keras.initializers", "class_name": "Zeros", "config": {}, "registered_name": null}, "gamma_initializer": {"module": "keras.initializers", "class_name": "Ones", "config": {}, "registered_name": null}, "moving_mean_initializer": {"module": "keras.initializers", "class_name": "Zeros", "config": {}, "registered_name": null}, "moving_variance_initializer": {"module": "keras.initializers", "class_name": "Ones", "config": {}, "registered_name": null}, "beta_regularizer": null, "gamma_regularizer": null, "beta_constraint": null, "gamma_constraint": null}, "name": "conv4_block16_1_bn", "inbound_nodes": [[["conv4_block16_1_conv", 0, 0, {}]]]}, {"class_name": "Activation", "config": {"name": "conv4_block16_1_relu", "trainable": false, "dtype": "float32", "activation": "relu"}, "name": "conv4_block16_1_relu", "inbound_nodes": [[["conv4_block16_1_bn", 0, 0, {}]]]}, {"class_name": "Conv2D", "config": {"name": "conv4_block16_2_conv", "trainable": false, "dtype": "float32", "filters": 32, "kernel_size": [3, 3], "strides": [1, 1], "padding": "same", "data_format": "channels_last", "dilation_rate": [1, 1], "groups": 1, "activation": "linear", "use_bias": false, "kernel_initializer": {"module": "keras.initializers", "class_name": "GlorotUniform", "config": {"seed": null}, "registered_name": null}, "bias_initializer": {"module": "keras.initializers", "class_name": "Zeros", "config": {}, "registered_name": null}, "kernel_regularizer": null, "bias_regularizer": null, "activity_regularizer": null, "kernel_constraint": null, "bias_constraint": null}, "name": "conv4_block16_2_conv", "inbound_nodes": [[["conv4_block16_1_relu", 0, 0, {}]]]}, {"class_name": "Concatenate", "config": {"name": "conv4_block16_concat", "trainable": false, "dtype": "float32", "axis": 3}, "name": "conv4_block16_concat", "inbound_nodes": [[["conv4_block15_concat", 0, 0, {}], ["conv4_block16_2_conv", 0, 0, {}]]]}, {"class_name": "BatchNormalization", "config": {"name": "conv4_block17_0_bn", "trainable": false, "dtype": "float32", "axis": [3], "momentum": 0.99, "epsilon": 1.001e-05, "center": true, "scale": true, "beta_initializer": {"module": "keras.initializers", "class_name": "Zeros", "config": {}, "registered_name": null}, "gamma_initializer": {"module": "keras.initializers", "class_name": "Ones", "config": {}, "registered_name": null}, "moving_mean_initializer": {"module": "keras.initializers", "class_name": "Zeros", "config": {}, "registered_name": null}, "moving_variance_initializer": {"module": "keras.initializers", "class_name": "Ones", "config": {}, "registered_name": null}, "beta_regularizer": null, "gamma_regularizer": null, "beta_constraint": null, "gamma_constraint": null}, "name": "conv4_block17_0_bn", "inbound_nodes": [[["conv4_block16_concat", 0, 0, {}]]]}, {"class_name": "Activation", "config": {"name": "conv4_block17_0_relu", "trainable": false, "dtype": "float32", "activation": "relu"}, "name": "conv4_block17_0_relu", "inbound_nodes": [[["conv4_block17_0_bn", 0, 0, {}]]]}, {"class_name": "Conv2D", "config": {"name": "conv4_block17_1_conv", "trainable": false, "dtype": "float32", "filters": 128, "kernel_size": [1, 1], "strides": [1, 1], "padding": "valid", "data_format": "channels_last", "dilation_rate": [1, 1], "groups": 1, "activation": "linear", "use_bias": false, "kernel_initializer": {"module": "keras.initializers", "class_name": "GlorotUniform", "config": {"seed": null}, "registered_name": null}, "bias_initializer": {"module": "keras.initializers", "class_name": "Zeros", "config": {}, "registered_name": null}, "kernel_regularizer": null, "bias_regularizer": null, "activity_regularizer": null, "kernel_constraint": null, "bias_constraint": null}, "name": "conv4_block17_1_conv", "inbound_nodes": [[["conv4_block17_0_relu", 0, 0, {}]]]}, {"class_name": "BatchNormalization", "config": {"name": "conv4_block17_1_bn", "trainable": false, "dtype": "float32", "axis": [3], "momentum": 0.99, "epsilon": 1.001e-05, "center": true, "scale": true, "beta_initializer": {"module": "keras.initializers", "class_name": "Zeros", "config": {}, "registered_name": null}, "gamma_initializer": {"module": "keras.initializers", "class_name": "Ones", "config": {}, "registered_name": null}, "moving_mean_initializer": {"module": "keras.initializers", "class_name": "Zeros", "config": {}, "registered_name": null}, "moving_variance_initializer": {"module": "keras.initializers", "class_name": "Ones", "config": {}, "registered_name": null}, "beta_regularizer": null, "gamma_regularizer": null, "beta_constraint": null, "gamma_constraint": null}, "name": "conv4_block17_1_bn", "inbound_nodes": [[["conv4_block17_1_conv", 0, 0, {}]]]}, {"class_name": "Activation", "config": {"name": "conv4_block17_1_relu", "trainable": false, "dtype": "float32", "activation": "relu"}, "name": "conv4_block17_1_relu", "inbound_nodes": [[["conv4_block17_1_bn", 0, 0, {}]]]}, {"class_name": "Conv2D", "config": {"name": "conv4_block17_2_conv", "trainable": false, "dtype": "float32", "filters": 32, "kernel_size": [3, 3], "strides": [1, 1], "padding": "same", "data_format": "channels_last", "dilation_rate": [1, 1], "groups": 1, "activation": "linear", "use_bias": false, "kernel_initializer": {"module": "keras.initializers", "class_name": "GlorotUniform", "config": {"seed": null}, "registered_name": null}, "bias_initializer": {"module": "keras.initializers", "class_name": "Zeros", "config": {}, "registered_name": null}, "kernel_regularizer": null, "bias_regularizer": null, "activity_regularizer": null, "kernel_constraint": null, "bias_constraint": null}, "name": "conv4_block17_2_conv", "inbound_nodes": [[["conv4_block17_1_relu", 0, 0, {}]]]}, {"class_name": "Concatenate", "config": {"name": "conv4_block17_concat", "trainable": false, "dtype": "float32", "axis": 3}, "name": "conv4_block17_concat", "inbound_nodes": [[["conv4_block16_concat", 0, 0, {}], ["conv4_block17_2_conv", 0, 0, {}]]]}, {"class_name": "BatchNormalization", "config": {"name": "conv4_block18_0_bn", "trainable": false, "dtype": "float32", "axis": [3], "momentum": 0.99, "epsilon": 1.001e-05, "center": true, "scale": true, "beta_initializer": {"module": "keras.initializers", "class_name": "Zeros", "config": {}, "registered_name": null}, "gamma_initializer": {"module": "keras.initializers", "class_name": "Ones", "config": {}, "registered_name": null}, "moving_mean_initializer": {"module": "keras.initializers", "class_name": "Zeros", "config": {}, "registered_name": null}, "moving_variance_initializer": {"module": "keras.initializers", "class_name": "Ones", "config": {}, "registered_name": null}, "beta_regularizer": null, "gamma_regularizer": null, "beta_constraint": null, "gamma_constraint": null}, "name": "conv4_block18_0_bn", "inbound_nodes": [[["conv4_block17_concat", 0, 0, {}]]]}, {"class_name": "Activation", "config": {"name": "conv4_block18_0_relu", "trainable": false, "dtype": "float32", "activation": "relu"}, "name": "conv4_block18_0_relu", "inbound_nodes": [[["conv4_block18_0_bn", 0, 0, {}]]]}, {"class_name": "Conv2D", "config": {"name": "conv4_block18_1_conv", "trainable": false, "dtype": "float32", "filters": 128, "kernel_size": [1, 1], "strides": [1, 1], "padding": "valid", "data_format": "channels_last", "dilation_rate": [1, 1], "groups": 1, "activation": "linear", "use_bias": false, "kernel_initializer": {"module": "keras.initializers", "class_name": "GlorotUniform", "config": {"seed": null}, "registered_name": null}, "bias_initializer": {"module": "keras.initializers", "class_name": "Zeros", "config": {}, "registered_name": null}, "kernel_regularizer": null, "bias_regularizer": null, "activity_regularizer": null, "kernel_constraint": null, "bias_constraint": null}, "name": "conv4_block18_1_conv", "inbound_nodes": [[["conv4_block18_0_relu", 0, 0, {}]]]}, {"class_name": "BatchNormalization", "config": {"name": "conv4_block18_1_bn", "trainable": false, "dtype": "float32", "axis": [3], "momentum": 0.99, "epsilon": 1.001e-05, "center": true, "scale": true, "beta_initializer": {"module": "keras.initializers", "class_name": "Zeros", "config": {}, "registered_name": null}, "gamma_initializer": {"module": "keras.initializers", "class_name": "Ones", "config": {}, "registered_name": null}, "moving_mean_initializer": {"module": "keras.initializers", "class_name": "Zeros", "config": {}, "registered_name": null}, "moving_variance_initializer": {"module": "keras.initializers", "class_name": "Ones", "config": {}, "registered_name": null}, "beta_regularizer": null, "gamma_regularizer": null, "beta_constraint": null, "gamma_constraint": null}, "name": "conv4_block18_1_bn", "inbound_nodes": [[["conv4_block18_1_conv", 0, 0, {}]]]}, {"class_name": "Activation", "config": {"name": "conv4_block18_1_relu", "trainable": false, "dtype": "float32", "activation": "relu"}, "name": "conv4_block18_1_relu", "inbound_nodes": [[["conv4_block18_1_bn", 0, 0, {}]]]}, {"class_name": "Conv2D", "config": {"name": "conv4_block18_2_conv", "trainable": false, "dtype": "float32", "filters": 32, "kernel_size": [3, 3], "strides": [1, 1], "padding": "same", "data_format": "channels_…
riance", "shape": [1120], "dtype": "float32"}, {"name": "conv4_block28_1_bn/gamma", "shape": [128], "dtype": "float32"}, {"name": "conv4_block28_1_bn/beta", "shape": [128], "dtype": "float32"}, {"name": "conv4_block28_1_bn/moving_mean", "shape": [128], "dtype": "float32"}, {"name": "conv4_block28_1_bn/moving_variance", "shape": [128], "dtype": "float32"}, {"name": "conv4_block28_1_conv/kernel", "shape": [1, 1, 1120, 128], "dtype": "float32"}, {"name": "conv4_block28_2_conv/kernel", "shape": [3, 3, 128, 32], "dtype": "float32"}, {"name": "conv4_block29_0_bn/gamma", "shape": [1152], "dtype": "float32"}, {"name": "conv4_block29_0_bn/beta", "shape": [1152], "dtype": "float32"}, {"name": "conv4_block29_0_bn/moving_mean", "shape": [1152], "dtype": "float32"}, {"name": "conv4_block29_0_bn/moving_variance", "shape": [1152], "dtype": "float32"}, {"name": "conv4_block29_1_bn/gamma", "shape": [128], "dtype": "float32"}, {"name": "conv4_block29_1_bn/beta", "shape": [128], "dtype": "float32"}, {"name": "conv4_block29_1_bn/moving_mean", "shape": [128], "dtype": "float32"}, {"name": "conv4_block29_1_bn/moving_variance", "shape": [128], "dtype": "float32"}, {"name": "conv4_block29_1_conv/kernel", "shape": [1, 1, 1152, 128], "dtype": "float32"}, {"name": "conv4_block29_2_conv/kernel", "shape": [3, 3, 128, 32], "dtype": "float32"}, {"name": "conv4_block2_0_bn/gamma", "shape": [288], "dtype": "float32"}, {"name": "conv4_block2_0_bn/beta", "shape": [288], "dtype": "float32"}, {"name": "conv4_block2_0_bn/moving_mean", "shape": [288], "dtype": "float32"}, {"name": "conv4_block2_0_bn/moving_variance", "shape": [288], "dtype": "float32"}, {"name": "conv4_block2_1_bn/gamma", "shape": [128], "dtype": "float32"}, {"name": "conv4_block2_1_bn/beta", "shape": [128], "dtype": "float32"}, {"name": "conv4_block2_1_bn/moving_mean", "shape": [128], "dtype": "float32"}, {"name": "conv4_block2_1_bn/moving_variance", "shape": [128], "dtype": "float32"}, {"name": "conv4_block2_1_conv/kernel", "shape": [1, 1, 288, 128], "dtype": "float32"}, {"name": "conv4_block2_2_conv/kernel", "shape": [3, 3, 128, 32], "dtype": "float32"}, {"name": "conv4_block30_0_bn/gamma", "shape": [1184], "dtype": "float32"}, {"name": "conv4_block30_0_bn/beta", "shape": [1184], "dtype": "float32"}, {"name": "conv4_block30_0_bn/moving_mean", "shape": [1184], "dtype": "float32"}, {"name": "conv4_block30_0_bn/moving_variance", "shape": [1184], "dtype": "float32"}, {"name": "conv4_block30_1_bn/gamma", "shape": [128], "dtype": "float32"}, {"name": "conv4_block30_1_bn/beta", "shape": [128], "dtype": "float32"}, {"name": "conv4_block30_1_bn/moving_mean", "shape": [128], "dtype": "float32"}, {"name": "conv4_block30_1_bn/moving_variance", "shape": [128], "dtype": "float32"}, {"name": "conv4_block30_1_conv/kernel", "shape": [1, 1, 1184, 128], "dtype": "float32"}, {"name": "conv4_block30_2_conv/kernel", "shape": [3, 3, 128, 32], "dtype": "float32"}, {"name": "conv4_block31_0_bn/gamma", "shape": [1216], "dtype": "float32"}, {"name": "conv4_block31_0_bn/beta", "shape": [1216], "dtype": "float32"}, {"name": "conv4_block31_0_bn/moving_mean", "shape": [1216], "dtype": "float32"}, {"name": "conv4_block31_0_bn/moving_variance", "shape": [1216], "dtype": "float32"}, {"name": "conv4_block31_1_bn/gamma", "shape": [128], "dtype": "float32"}, {"name": "conv4_block31_1_bn/beta", "shape": [128], "dtype": "float32"}, {"name": "conv4_block31_1_bn/moving_mean", "shape": [128], "dtype": "float32"}, {"name": "conv4_block31_1_bn/moving_variance", "shape": [128], "dtype": "float32"}, {"name": "conv4_block31_1_conv/kernel", "shape": [1, 1, 1216, 128], "dtype": "float32"}, {"name": "conv4_block31_2_conv/kernel", "shape": [3, 3, 128, 32], "dtype": "float32"}, {"name": "conv4_block32_0_bn/gamma", "shape": [1248], "dtype": "float32"}, {"name": "conv4_block32_0_bn/beta", "shape": [1248], "dtype": "float32"}, {"name": "conv4_block32_0_bn/moving_mean", "shape": [1248], "dtype": "float32"}, {"name": "conv4_block32_0_bn/moving_variance", "shape": [1248], "dtype": "float32"}, {"name": "conv4_block32_1_bn/gamma", "shape": [128], "dtype": "float32"}, {"name": "conv4_block32_1_bn/beta", "shape": [128], "dtype": "float32"}, {"name": "conv4_block32_1_bn/moving_mean", "shape": [128], "dtype": "float32"}, {"name": "conv4_block32_1_bn/moving_variance", "shape": [128], "dtype": "float32"}, {"name": "conv4_block32_1_conv/kernel", "shape": [1, 1, 1248, 128], "dtype": "float32"}, {"name": "conv4_block32_2_conv/kernel", "shape": [3, 3, 128, 32], "dtype": "float32"}, {"name": "conv4_block33_0_bn/gamma", "shape": [1280], "dtype": "float32"}, {"name": "conv4_block33_0_bn/beta", "shape": [1280], "dtype": "float32"}, {"name": "conv4_block33_0_bn/moving_mean", "shape": [1280], "dtype": "float32"}, {"name": "conv4_block33_0_bn/moving_variance", "shape": [1280], "dtype": "float32"}, {"name": "conv4_block33_1_bn/gamma", "shape": [128], "dtype": "float32"}, {"name": "conv4_block33_1_bn/beta", "shape": [128], "dtype": "float32"}, {"name": "conv4_block33_1_bn/moving_mean", "shape": [128], "dtype": "float32"}, {"name": "conv4_block33_1_bn/moving_variance", "shape": [128], "dtype": "float32"}, {"name": "conv4_block33_1_conv/kernel", "shape": [1, 1, 1280, 128], "dtype": "float32"}, {"name": "conv4_block33_2_conv/kernel", "shape": [3, 3, 128, 32], "dtype": "float32"}, {"name": "conv4_block34_0_bn/gamma", "shape": [1312], "dtype": "float32"}, {"name": "conv4_block34_0_bn/beta", "shape": [1312], "dtype": "float32"}, {"name": "conv4_block34_0_bn/moving_mean", "shape": [1312], "dtype": "float32"}, {"name": "conv4_block34_0_bn/moving_variance", "shape": [1312], "dtype": "float32"}, {"name": "conv4_block34_1_bn/gamma", "shape": [128], "dtype": "float32"}, {"name": "conv4_block34_1_bn/beta", "shape": [128], "dtype": "float32"}, {"name": "conv4_block34_1_bn/moving_mean", "shape": [128], "dtype": "float32"}, {"name": "conv4_block34_1_bn/moving_variance", "shape": [128], "dtype": "float32"}, {"name": "conv4_block34_1_conv/kernel", "shape": [1, 1, 1312, 128], "dtype": "float32"}, {"name": "conv4_block34_2_conv/kernel", "shape": [3, 3, 128, 32], "dtype": "float32"}, {"name": "conv4_block35_0_bn/gamma", "shape": [1344], "dtype": "float32"}, {"name": "conv4_block35_0_bn/beta", "shape": [1344], "dtype": "float32"}, {"name": "conv4_block35_0_bn/moving_mean", "shape": [1344], "dtype": "float32"}, {"name": "conv4_block35_0_bn/moving_variance", "shape": [1344], "dtype": "float32"}, {"name": "conv4_block35_1_bn/gamma", "shape": [128], "dtype": "float32"}, {"name": "conv4_block35_1_bn/beta", "shape": [128], "dtype": "float32"}, {"name": "conv4_block35_1_bn/moving_mean", "shape": [128], "dtype": "float32"}, {"name": "conv4_block35_1_bn/moving_variance", "shape": [128], "dtype": "float32"}, {"name": "conv4_block35_1_conv/kernel", "shape": [1, 1, 1344, 128], "dtype": "float32"}, {"name": "conv4_block35_2_conv/kernel", "shape": [3, 3, 128, 32], "dtype": "float32"}, {"name": "conv4_block36_0_bn/gamma", "shape": [1376], "dtype": "float32"}, {"name": "conv4_block36_0_bn/beta", "shape": [1376], "dtype": "float32"}, {"name": "conv4_block36_0_bn/moving_mean", "shape": [1376], "dtype": "float32"}, {"name": "conv4_block36_0_bn/moving_variance", "shape": [1376], "dtype": "float32"}, {"name": "conv4_block36_1_bn/gamma", "shape": [128], "dtype": "float32"}, {"name": "conv4_block36_1_bn/beta", "shape": [128], "dtype": "float32"}, {"name": "conv4_block36_1_bn/moving_mean", "shape": [128], "dtype": "float32"}, {"name": "conv4_block36_1_bn/moving_variance", "shape": [128], "dtype": "float32"}, {"name": "conv4_block36_1_conv/kernel", "shape": [1, 1, 1376, 128], "dtype": "float32"}, {"name": "conv4_block36_2_conv/kernel", "shape": [3, 3, 128, 32], "dtype": "float32"}, {"name": "conv4_block37_0_bn/gamma", "shape": [1408], "dtype": "float32"}, {"name": "conv4_block37_0_bn/beta", "shape": [1408], "dtype": "float32"}, {"name": "conv4_block37_0_bn/moving_mean", "shape": [1408], "dtype": "float32"}, {"name": "conv4_block37_0_bn/moving_variance", "shape": [1408], "dtype": "float32"}, {"name": "conv4_block37_1_bn/gamma", "shape": [128], "dtype": "float32"}, {"name": "conv4_block37_1_bn/beta", "shape": [128], "dtype": "float32"}, {"name": "conv4_block37_1_bn/moving_mean", "shape": [128], "dtype": "float32"}, {"name": "conv4_block37_1_bn/moving_variance", "shape": [128], "dtype": "float32"}, {"name": "conv4_block37_1_conv/kernel", "shape": [1, 1, 1408, 128], "dtype": "float32"}, {"name": "conv4_block37_2_conv/kernel", "shape": [3, 3, 128, 32], "dtype": "float32"}, {"name": "conv4_block38_0_bn/gamma", "shape": [1440], "dtype": "float32"}, {"name": "conv4_block38_0_bn/beta", "shape": [1440], "dtype": "float32"}, {"name": "conv4_block38_0_bn/moving_mean", "shape": [1440], "dtype": "float32"}, {"name": "conv4_block38_0_bn/moving_variance", "shape": [1440], "dtype": "float32"}, {"name": "conv4_block38_1_bn/gamma", "shape": [128], "dtype": "float32"}, {"name": "conv4_block38_1_bn/beta", "shape": [128], "dtype": "float32"}, {"name": "conv4_block38_1_bn/moving_mean", "shape": [128], "dtype": "float32"}, {"name": "conv4_block38_1_bn/moving_variance", "shape": [128], "dtype": "float32"}, {"name": "conv4_block38_1_conv/kernel", "shape": [1, 1, 1440, 128], "dtype": "float32"}, {"name": "conv4_block38_2_conv/kernel", "shape": [3, 3, 128, 32], "dtype": "float32"}, {"name": "conv4_block39_0_bn/gamma", "shape": [1472], "dtype": "float32"}, {"name": "conv4_block39_0_bn/beta", "shape": [1472], "dtype": "float32"}, {"name": "conv4_block39_0_bn/moving_mean", "shape": [1472], "dtype": "float32"}, {"name": "conv4_block39_0_bn/moving_variance", "shape": [1472], "dtype": "float32"}, {"name": "conv4_block39_1_bn/gamma", "shape": [128], "dtype": "float32"}, {"name": "conv4_block39_1_bn/beta", "shape": [128], "dtype": "float32"}, {"name": "conv4_block39_1_bn/moving_mean", "shape": [128], "dtype": "float32"}, {"name": "conv4_block39_1_bn/moving_variance", "shape": [128], "dtype": "float32"}, {"name": "conv4_block39_1_conv/kernel", "shape": [1, 1, 1472, 128], "dtype": "float32"}, {"name": "conv4_block39_2_conv/kernel", "shape": [3, 3, 128, 32], "dtype": "float32"}, {"name": "conv4_block3_0_bn/gamma", "shape": [320], "dtype": "float32"}, {"name": "conv4_block3_0_bn/beta", "shape": [320], "dtype": "float32"}, {"name": "conv4_block3_0_bn/moving_mean", "shape": [320], "dtype": "float32"}, {"name": "conv4_block3_0_bn/moving_variance", "shape": [320], "dtype": "float32"}, {"name": "conv4_block3_1_bn/gamma", "shape": [128], "dtype": "float32"}, {"name": "conv4_block3_1_bn/beta", "shape": [128], "dtype": "float32"}, {"name": "conv4_block3_1_bn/moving_mean", "shape": [128], "dtype": "float32"}, {"name": "conv4_block3_1_bn/moving_variance", "shape": [128], "dtype": "float32"}, {"name": "conv4_block3_1_conv/kernel", "shape": [1, 1, 320, 128], "dtype": "float32"}, {"name": "conv4_block3_2_conv/kernel", "shape": [3, 3, 128, 32], "dtype": "float32"}, {"name": "conv4_block40_0_bn/gamma", "shape": [1504], "dtype": "float32"}, {"name": "conv4_block40_0_bn/beta", "shape": [1504], "dtype": "float32"}, {"name": "conv4_block40_0_bn/moving_mean", "shape": [1504], "dtype": "float32"}, {"name": "conv4_block40_0_bn/moving_variance", "shape": [1504], "dtype": "float32"}, {"name": "conv4_block40_1_bn/gamma", "shape": [128], "dtype": "float32"}, {"name": "conv4_block40_1_bn/beta", "shape": [128], "dtype": "float32"}, {"name": "conv4_block40_1_bn/moving_mean", "shape": [128], "dtype": "float32"}, {"name": "conv4_block40_1_bn/moving_variance", "shape": [128], "dtype": "float32"}, {"name": "conv4_block40_1_conv/kernel", "shape": [1, 1, 1504, 128], "dtype": "float32"}, {"name": "conv4_block40_2_conv/kernel", "shape": [3, 3, 128, 32], "dtype": "float32"}, {"name": "conv4_block41_0_bn/gamma", "shape": [1536], "dtype": "float32"}, {"name": "conv4_block41_0_bn/beta", "shape": [1536], "dtype": "float32"}, {"name": "conv4_block41_0_bn/moving_mean", "shape": [1536], "dtype": "float32"}, {"name": "conv4_block41_0_bn/moving_variance", "shape": [1536], "dtype": "float32"}, {"name": "conv4_block41_1_bn/gamma", "shape": [128], "dtype": "float32"}, {"name": "conv4_block41_1_bn/beta", "shape": [128], "dtype": "float32"}, {"name": "conv4_block41_1_bn/moving_mean", "shape": [128], "dtype": "float32"}, {"name": "conv4_block41_1_bn/moving_variance", "shape": [128], "dtype": "float32"}, {"name": "conv4_block41_1_conv/kernel", "shape": [1, 1, 1536, 128], "dtype": "float32"}, {"name": "conv4_block41_2_conv/kernel", "shape": [3, 3, 128, 32], "dtype": "float32"}, {"name": "conv4_block42_0_bn/gamma", "shape": [1568], "dtype": "float32"}, {"name": "conv4_block42_0_bn/beta", "shape": [1568], "dtype": "float32"}, {"name": "conv4_block42_0_bn/moving_mean", "shape": [1568], "dtype": "float32"}, {"name": "conv4_block42_0_bn/moving_variance", "shape": [1568], "dtype": "float32"}, {"name": "conv4_block42_1_bn/gamma", "shape": [128], "dtype": "float32"}, {"name": "conv4_block42_1_bn/beta", "shape": [128], "dtype": "float32"}, {"name": "conv4_block42_1_bn/moving_mean", "shape": [128], "dtype": "float32"}, {"name": "conv4_block42_1_bn/moving_variance", "shape": [128], "dtype": "float32"}, {"name": "conv4_block42_1_conv/kernel", "shape": [1, 1, 1568, 128], "dtype": "float32"}, {"name": "conv4_block42_2_conv/kernel", "shape": [3, 3, 128, 32], "dtype": "float32"}, {"name": "conv4_block43_0_bn/gamma", "shape": [1600], "dtype": "float32"}, {"name": "conv4_block43_0_bn/beta", "shape": [1600], "dtype": "float32"}, {"name": "conv4_block43_0_bn/moving_mean", "shape": [1600], "dtype": "float32"}, {"name": "conv4_block43_0_bn/moving_variance", "shape": [1600], "dtype": "float32"}, {"name": "conv4_block43_1_bn/gamma", "shape": [128], "dtype": "float32"}, {"name": "conv4_block43_1_bn/beta", "shape": [128], "dtype": "float32"}, {"name": "conv4_block43_1_bn/moving_mean", "shape": [128], "dtype": "float32"}, {"name": "conv4_block43_1_bn/moving_variance", "shape": [128], "dtype": "float32"}, {"name": "conv4_block43_1_conv/kernel", "shape": [1, 1, 1600, 128], "dtype": "float32"}, {"name": "conv4_block43_2_conv/kernel", "shape": [3, 3, 128, 32], "dtype": "float32"}, {"name": "conv4_block44_0_bn/gamma", "shape": [1632], "dtype": "float32"}, {"name": "conv4_block44_0_bn/beta", "shape": [1632], "dtype": "float32"}, {"name": "conv4_block44_0_bn/moving_mean", "shape": [1632], "dtype": "float32"}, {"name": "conv4_block44_0_bn/moving_variance", "shape": [1632], "dtype": "float32"}, {"name": "conv4_block44_1_bn/gamma", "shape": [128], "dtype": "float32"}, {"name": "conv4_block44_1_bn/beta", "shape": [128], "dtype": "float32"}, {"name": "conv4_block44_1_bn/moving_mean", "shape": [128], "dtype": "float32"}, {"name": "conv4_block44_1_bn/moving_variance", "shape": [128], "dtype": "float32"}, {"name": "conv4_block44_1_conv/kernel", "shape": [1, 1, 1632, 128], "dtype": "float32"}, {"name": "conv4_block44_2_conv/kernel", "shape": [3, 3, 128, 32], "dtype": "float32"}, {"name": "conv4_block45_0_bn/gamma", "shape": [1664], "dtype": "float32"}, {"name": "conv4_block45_0_bn/beta", "shape": [1664], "dtype": "float32"}, {"name": "conv4_block45_0_bn/moving_mean", "shape": [1664], "dtype": "float32"}, {"name": "conv4_block45_0_bn/moving_variance", "shape": [1664], "dtype": "float32"}, {"name": "conv4_block45_1_bn/gamma", "shape": [128], "dtype": "float32"}, {"name": "conv4_block45_1_bn/beta", "shape": [128], "dtype": "float32"}, {"name": "conv4_block45_1_bn/moving_mean", "shape": [128], "dtype": "float32"}, {"name": "conv4_block45_1_bn/moving_variance", "shape": [128], "dtype": "float32"}, {"name": "conv4_block45_1_conv/kernel", "shape": [1, 1, 1664, 128], "dtype": "float32"}, {"name": "conv4_block45_2_conv/kernel", "shape": [3, 3, 128, 32], "dtype": "float32"}, {"name": "conv4_block46_0_bn/gamma", "shape": [1696], "dtype": "float32"}, {"name": "conv4_block46_0_bn/beta", "shape": [1696], "dtype": "float32"}, {"name": "conv4_block46_0_bn/moving_mean", "shape": [1696], "dtype": "float32"}, {"name": "conv4_block46_0_bn/moving_variance", "shape": [1696], "dtype": "float32"}, {"name": "conv4_block46_1_bn/gamma", "shape": [128], "dtype": "float32"}, {"name": "conv4_block46_1_bn/beta", "shape": [128], "dtype": "float32"}, {"name": "conv4_block46_1_bn/moving_mean", "shape": [128], "dtype": "float32"}, {"name": "conv4_block46_1_bn/moving_variance", "shape": [128], "dtype": "float32"}, {"name": "conv4_block46_1_conv/kernel", "shape": [1, 1, 1696, 128], "dtype": "float32"}, {"name": "conv4_block46_2_conv/kernel", "shape": [3, 3, 128, 32], "dtype": "float32"}, {"name": "conv4_block47_0_bn/gamma", "shape": [1728], "dtype": "float32"}, {"name": "conv4_block47_0_bn/beta", "shape": [1728], "dtype": "float32"}, {"name": "conv4_block47_0_bn/moving_mean", "shape": [1728], "dtype": "float32"}, {"name": "conv4_block47_0_bn/moving_variance", "shape": [1728], "dtype": "float32"}, {"name": "conv4_block47_1_bn/gamma", "shape": [128], "dtype": "float32"}, {"name": "conv4_block47_1_bn/beta", "shape": [128], "dtype": "float32"}, {"name": "conv4_block47_1_bn/moving_mean", "shape": [128], "dtype": "float32"}, {"name": "conv4_block47_1_bn/moving_variance", "shape": [128], "dtype": "float32"}, {"name": "conv4_block47_1_conv/kernel", "shape": [1, 1, 1728, 128], "dtype": "float32"}, {"name": "conv4_block47_2_conv/kernel", "shape": [3, 3, 128, 32], "dtype": "float32"}, {"name": "conv4_block48_0_bn/gamma", "shape": [1760], "dtype": "float32"}, {"name": "conv4_block48_0_bn/beta", "shape": [1760], "dtype": "float32"}, {"name": "conv4_block48_0_bn/moving_mean", "shape": [1760], "dtype": "float32"}, {"name": "conv4_block48_0_bn/moving_variance", "shape": [1760], "dtype": "float32"}, {"name": "conv4_block48_1_bn/gamma", "shape": [128], "dtype": "float32"}, {"name": "conv4_block48_1_bn/beta", "shape": [128], "dtype": "float32"}, {"name": "conv4_block48_1_bn/moving_mean", "shape": [128], "dtype": "float32"}, {"name": "conv4_block48_1_bn/moving_variance", "shape": [128], "dtype": "float32"}, {"name": "conv4_block48_1_conv/kernel", "shape": [1, 1, 1760, 128], "dtype": "float32"}, {"name": "conv4_block48_2_conv/kernel", "shape": [3, 3, 128, 32], "dtype": "float32"}, {"name": "conv4_block4_0_bn/gamma", "shape": [352], "dtype": "float32"}, {"name": "conv4_block4_0_bn/beta", "shape": [352], "dtype": "float32"}, {"name": "conv4_block4_0_bn/moving_mean", "shape": [352], "dtype": "float32"}, {"name": "conv4_block4_0_bn/moving_variance", "shape": [352], "dtype": "float32"}, {"name": "conv4_block4_1_bn/gamma", "shape": [128], "dtype": "float32"}, {"name": "conv4_block4_1_bn/beta", "shape": [128], "dtype": "float32"}, {"name": "conv4_block4_1_bn/moving_mean", "shape": [128], "dtype": "float32"}, {"name": "conv4_block4_1_bn/moving_variance", "shape": [128], "dtype": "float32"}, {"name": "conv4_block4_1_conv/kernel", "shape": [1, 1, 352, 128], "dtype": "float32"}, {"name": "conv4_block4_2_conv/kernel", "shape": [3, 3, 128, 32], "dtype": "float32"}, {"name": "conv4_block5_0_bn/gamma", "shape": [384], "dtype": "float32"}, {"name": "conv4_block5_0_bn/beta", "shape": [384], "dtype": "float32"}, {"name": "conv4_block5_0_bn/moving_mean", "shape": [384], "dtype": "float32"}, {"name": "conv4_block5_0_bn/moving_variance", "shape": [384], "dtype": "float32"}, {"name": "conv4_block5_1_bn/gamma", "shape": [128], "dtype": "float32"}, {"name": "conv4_block5_1_bn/beta", "shape": [128], "dtype": "float32"}, {"name": "conv4_block5_1_bn/moving_mean", "shape": [128], "dtype": "float32"}, {"name": "conv4_block5_1_bn/moving_variance", "shape": [128], "dtype": "float32"}, {"name": "conv4_block5_1_conv/kernel", "shape": [1, 1, 384, 128], "dtype": "float32"}, {"name": "conv4_block5_2_conv/kernel", "shape": [3, 3, 128, 32], "dtype": "float32"}, {"name": "conv4_block6_0_bn/gamma", "shape": [416], "dtype": "float32"}, {"name": "conv4_block6_0_bn/beta", "shape": [416], "dtype": "float32"}, {"name": "conv4_block6_0_bn/moving_mean", "shape": [416], "dtype": "float32"}, {"name": "conv4_block6_0_bn/moving_variance", "shape": [416], "dtype": "float32"}, {"name": "conv4_block6_1_bn/gamma", "shape": [128], "dtype": "float32"}, {"name": "conv4_block6_1_bn/beta", "shape": [128], "dtype": "float32"}, {"name": "conv4_block6_1_bn/moving_mean", "shape": [128], "dtype": "float32"}, {"name": "conv4_block6_1_bn/moving_variance", "shape": [128], "dtype": "float32"}, {"name": "conv4_block6_1_conv/kernel", "shape": [1, 1, 416, 128], "dtype": "float32"}, {"name": "conv4_block6_2_conv/kernel", "shape": [3, 3, 128, 32], "dtype": "float32"}, {"name": "conv4_block7_0_bn/gamma", "shape": [448], "dtype": "float32"}, {"name": "conv4_block7_0_bn/beta", "shape": [448], "dtype": "float32"}, {"name": "conv4_block7_0_bn/moving_mean", "shape": [448], "dtype": "float32"}, {"name": "conv4_block7_0_bn/moving_variance", "shape": [448], "dtype": "float32"}, {"name": "conv4_block7_1_bn/gamma", "shape": [128], "dtype": "float32"}, {"name": "conv4_block7_1_bn/beta", "shape": [128], "dtype": "float32"}, {"name": "conv4_block7_1_bn/moving_mean", "shape": [128], "dtype": "float32"}, {"name": "conv4_block7_1_bn/moving_variance", "shape": [128], "dtype": "float32"}, {"name": "conv4_block7_1_conv/kernel", "shape": [1, 1, 448, 128], "dtype": "float32"}, {"name": "conv4_block7_2_conv/kernel", "shape": [3, 3, 128, 32], "dtype": "float32"}, {"name": "conv4_block8_0_bn/gamma", "shape": [480], "dtype": "float32"}, {"name": "conv4_block8_0_bn/beta", "shape": [480], "dtype": "float32"}, {"name": "conv4_block8_0_bn/moving_mean", "shape": [480], "dtype": "float32"}, {"name": "conv4_block8_0_bn/moving_variance", "shape": [480], "dtype": "float32"}, {"name": "conv4_block8_1_bn/gamma", "shape": [128], "dtype": "float32"}, {"name": "conv4_block8_1_bn/beta", "shape": [128], "dtype": "float32"}, {"name": "conv4_block8_1_bn/moving_mean", "shape": [128], "dtype": "float32"}, {"name": "conv4_block8_1_bn/moving_variance", "shape": [128], "dtype": "float32"}, {"name": "conv4_block8_1_conv/kernel", "shape": [1, 1, 480, 128], "dtype": "float32"}, {"name": "conv4_block8_2_conv/kernel", "shape": [3, 3, 128, 32], "dtype": "float32"}, {"name": "conv4_block9_0_bn/gamma", "shape": [512], "dtype": "float32"}, {"name": "conv4_block9_0_bn/beta", "shape": [512], "dtype": "float32"}, {"name": "conv4_block9_0_bn/moving_mean", "shape": [512], "dtype": "float32"}, {"name": "conv4_block9_0_bn/moving_variance", "shape": [512], "dtype": "float32"}, {"name": "conv4_block9_1_bn/gamma", "shape": [128], "dtype": "float32"}, {"name": "conv4_block9_1_bn/beta", "shape": [128], "dtype": "float32"}, {"name": "conv4_block9_1_bn/moving_mean", "shape": [128], "dtype": "float32"}, {"name": "conv4_block9_1_bn/moving_variance", "shape": [128], "dtype": "float32"}, {"name": "conv4_block9_1_conv/kernel", "shape": [1, 1, 512, 128], "dtype": "float32"}, {"name": "conv4_block9_2_conv/kernel", "shape": [3, 3, 128, 32], "dtype": "float32"}, {"name": "conv5_block10_0_bn/gamma", "shape": [1184], "dtype": "float32"}, {"name": "conv5_block10_0_bn/beta", "shape": [1184], "dtype": "float32"}, {"name": "conv5_block10_0_bn/moving_mean", "shape": [1184], "dtype": "float32"}, {"name": "conv5_block10_0_bn/moving_variance", "shape": [1184], "dtype": "float32"}, {"name": "conv5_block10_1_bn/gamma", "shape": [128], "dtype": "float32"}, {"name": "conv5_block10_1_bn/beta", "shape": [128], "dtype": "float32"}, {"name": "conv5_block10_1_bn/moving_mean", "shape": [128], "dtype": "float32"}, {"name": "conv5_block10_1_bn/moving_variance", "shape": [128], "dtype": "float32"}, {"name": "conv5_block10_1_conv/kernel", "shape": [1, 1, 1184, 128], "dtype": "float32"}, {"name": "conv5_block10_2_conv/kernel", "shape": [3, 3, 128, 32], "dtype": "float32"}, {"name": "conv5_block11_0_bn/gamma", "shape": [1216], "dtype": "float32"}, {"name": "conv5_block11_0_bn/beta", "shape": [1216], "dtype": "float32"}, {"name": "conv5_block11_0_bn/moving_mean", "shape": [1216], "dtype": "float32"}, {"name": "conv5_block11_0_bn/moving_variance", "shape": [1216], "dtype": "float32"}, {"name": "conv5_block11_1_bn/gamma", "shape": [128], "dtype": "float32"}, {"name": "conv5_block11_1_bn/beta", "shape": [128], "dtype": "float32"}, {"name": "conv5_block11_1_bn/moving_mean", "shape": [128], "dtype": "float32"}, {"name": "conv5_block11_1_bn/moving_variance", "shape": [128], "dtype": "float32"}, {"name": "conv5_block11_1_conv/kernel", "shape": [1, 1, 1216, 128], "dtype": "float32"}, {"name": "conv5_block11_2_conv/kernel", "shape": [3, 3, 128, 32], "dtype": "float32"}, {"name": "conv5_block12_0_bn/gamma", "shape": [1248], "dtype": "float32"}, {"name": "conv5_block12_0_bn/beta", "shape": [1248], "dtype": "float32"}, {"name": "conv5_block12_0_bn/moving_mean", "shape": [1248], "dtype": "float32"}, {"name": "conv5_block12_0_bn/moving_variance", "shape": [1248], "dtype": "float32"}, {"name": "conv5_block12_1_bn/gamma", "shape": [128], "dtype": "float32"}, {"name": "conv5_block12_1_bn/beta", "shape": [128], "dtype": "float32"}, {"name": "conv5_block12_1_bn/moving_mean", "shape": [128], "dtype": "float32"}, {"name": "conv5_block12_1_bn/moving_variance", "shape": [128], "dtype": "float32"}, {"name": "conv5_block12_1_conv/kernel", "shape": [1, 1, 1248, 128], "dtype": "float32"}, {"name": "conv5_block12_2_conv/kernel", "shape": [3, 3, 128, 32], "dtype": "float32"}, {"name": "conv5_block13_0_bn/gamma", "shape": [1280], "dtype": "float32"}, {"name": "conv5_block13_0_bn/beta", "shape": [1280], "dtype": "float32"}, {"name": "conv5_block13_0_bn/moving_mean", "shape": [1280], "dtype": "float32"}, {"name": "conv5_block13_0_bn/moving_variance", "shape": [1280], "dtype": "float32"}, {"name": "conv5_block13_1_bn/gamma", "shape": [128], "dtype": "float32"}, {"name": "conv5_block13_1_bn/beta", "shape": [128], "dtype": "float32"}, {"name": "conv5_block13_1_bn/moving_mean", "shape": [128], "dtype": "float32"}, {"name": "conv5_block13_1_bn/moving_variance", "shape": [128], "dtype": "float32"}, {"name": "conv5_block13_1_conv/kernel", "shape": [1, 1, 1280, 128], "dtype": "float32"}, {"name": "conv5_block13_2_conv/kernel", "shape": [3, 3, 128, 32], "dtype": "float32"}, {"name": "conv5_block14_0_bn/gamma", "shape": [1312], "dtype": "float32"}, {"name": "conv5_block14_0_bn/beta", "shape": [1312], "dtype": "float32"}, {"name": "conv5_block14_0_bn/moving_mean", "shape": [1312], "dtype": "float32"}, {"name": "conv5_block14_0_bn/moving_variance", "shape": [1312], "dtype": "float32"}, {"name": "conv5_block14_1_bn/gamma", "shape": [128], "dtype": "float32"}, {"name": "conv5_block14_1_bn/beta", "shape": [128], "dtype": "float32"}, {"name": "conv5_block14_1_bn/moving_mean", "shape": [128], "dtype": "float32"}, {"name": "conv5_block14_1_bn/moving_variance", "shape": [128], "dtype": "float32"}, {"name": "conv5_block14_1_conv/kernel", "shape": [1, 1, 1312, 128], "dtype": "float32"}, {"name": "conv5_block14_2_conv/kernel", "shape": [3, 3, 128, 32], "dtype": "float32"}, {"name": "conv5_block15_0_bn/gamma", "shape": [1344], "dtype": "float32"}, {"name": "conv5_block15_0_bn/beta", "shape": [1344], "dtype": "float32"}, {"name": "conv5_block15_0_bn/moving_mean", "shape": [1344], "dtype": "float32"}, {"name": "conv5_block15_0_bn/moving_variance", "shape": [1344], "dtype": "float32"}, {"name": "conv5_block15_1_bn/gamma", "shape": [128], "dtype": "float32"}, {"name": "conv5_block15_1_bn/beta", "shape": [128], "dtype": "float32"}, {"name": "conv5_block15_1_bn/moving_mean", "shape": [128], "dtype": "float32"}, {"name": "conv5_block15_1_bn/moving_variance", "shape": [128], "dtype": "float32"}, {"name": "conv5_block15_1_conv/kernel", "shape": [1, 1, 1344, 128], "dtype": "float32"}, {"name": "conv5_block15_2_conv/kernel", "shape": [3, 3, 128, 32], "dtype": "float32"}, {"name": "conv5_block16_0_bn/gamma", "shape": [1376], "dtype": "float32"}, {"name": "conv5_block16_0_bn/beta", "shape": [1376], "dtype": "float32"}, {"name": "conv5_block16_0_bn/moving_mean", "shape": [1376], "dtype": "float32"}, {"name": "conv5_block16_0_bn/moving_variance", "shape": [1376], "dtype": "float32"}, {"name": "conv5_block16_1_bn/gamma", "shape": [128], "dtype": "float32"}, {"name": "conv5_block16_1_bn/beta", "shape": [128], "dtype": "float32"}, {"name": "conv5_block16_1_bn/moving_mean", "shape": [128], "dtype": "float32"}, {"name": "conv5_block16_1_bn/moving_variance", "shape": [128], "dtype": "float32"}, {"name": "conv5_block16_1_conv/kernel", "shape": [1, 1, 1376, 128], "dtype": "float32"}, {"name": "conv5_block16_2_conv/kernel", "shape": [3, 3, 128, 32], "dtype": "float32"}, {"name": "conv5_block17_0_bn/gamma", "shape": [1408], "dtype": "float32"}, {"name": "conv5_block17_0_bn/beta", "shape": [1408], "dtype": "float32"}, {"name": "conv5_block17_0_bn/moving_mean", "shape": [1408], "dtype": "float32"}, {"name": "conv5_block17_0_bn/moving_variance", "shape": [1408], "dtype": "float32"}, {"name": "conv5_block17_1_bn/gamma", "shape": [128], "dtype": "float32"}, {"name": "conv5_block17_1_bn/beta", "shape": [128], "dtype": "float32"}, {"name": "conv5_block17_1_bn/moving_mean", "shape": [128], "dtype": "float32"}, {"name": "conv5_block17_1_bn/moving_variance", "shape": [128], "dtype": "float32"}, {"name": "conv5_block17_1_conv/kernel", "shape": [1, 1, 1408, 128], "dtype": "float32"}, {"name": "conv5_block17_2_conv/kernel", "shape": [3, 3, 128, 32], "dtype": "float32"}, {"name": "conv5_block18_0_bn/gamma", "shape": [1440], "dtype": "float32"}, {"name": "conv5_block18_0_bn/beta", "shape": [1440], "dtype": "float32"}, {"name": "conv5_block18_0_bn/moving_mean", "shape": [1440], "dtype": "float32"}, {"name": "conv5_block18_0_bn/moving_variance", "shape": [1440], "dtype": "float32"}, {"name": "conv5_block18_1_bn/gamma", "shape": [128], "dtype": "float32"}, {"name": "conv5_block18_1_bn/beta", "shape": [128], "dtype": "float32"}, {"name": "conv5_block18_1_bn/moving_mean", "shape": [128], "dtype": "float32"}, {"name": "conv5_block18_1_bn/moving_variance", "shape": [128], "dtype": "float32"}, {"name": "conv5_block18_1_conv/kernel", "shape": [1, 1, 1440, 128], "dtype": "float32"}, {"name": "conv5_block18_2_conv/kernel", "shape": [3, 3, 128, 32], "dtype": "float32"}, {"name": "conv5_block19_0_bn/gamma", "shape": [1472], "dtype": "float32"}, {"name": "conv5_block19_0_bn/beta", "shape": [1472], "dtype": "float32"}, {"name": "conv5_block19_0_bn/moving_mean", "shape": [1472], "dtype": "float32"}, {"name": "conv5_block19_0_bn/moving_variance", "shape": [1472], "dtype": "float32"}, {"name": "conv5_block19_1_bn/gamma", "shape": [128], "dtype": "float32"}, {"name": "conv5_block19_1_bn/beta", "shape": [128], "dtype": "float32"}, {"name": "conv5_block19_1_bn/moving_mean", "shape": [128], "dtype": "float32"}, {"name": "conv5_block19_1_bn/moving_variance", "shape": [128], "dtype": "float32"}, {"name": "conv5_block19_1_conv/kernel", "shape": [1, 1, 1472, 128], "dtype": "float32"}, {"name": "conv5_block19_2_conv/kernel", "shape": [3, 3, 128, 32], "dtype": "float32"}, {"name": "conv5_block1_0_bn/gamma", "shape": [896], "dtype": "float32"}, {"name": "conv5_block1_0_bn/beta", "shape": [896], "dtype": "float32"}, {"name": "conv5_block1_0_bn/moving_mean", "shape": [896], "dtype": "float32"}, {"name": "conv5_block1_0_bn/moving_variance", "shape": [896], "dtype": "float32"}, {"name": "conv5_block1_1_bn/gamma", "shape": [128], "dtype": "float32"}, {"name": "conv5_block1_1_bn/beta", "shape": [128], "dtype": "float32"}, {"name": "conv5_block1_1_bn/moving_mean", "shape": [128], "dtype": "float32"}, {"name": "conv5_block1_1_bn/moving_variance", "shape": [128], "dtype": "float32"}, {"name": "conv5_block1_1_conv/kernel", "shape": [1, 1, 896, 128], "dtype": "float32"}, {"name": "conv5_block1_2_conv/kernel", "shape": [3, 3, 128, 32], "dtype": "float32"}, {"name": "conv5_block20_0_bn/gamma", "shape": [1504], "dtype": "float32"}, {"name": "conv5_block20_0_bn/beta", "shape": [1504], "dtype": "float32"}, {"name": "conv5_block20_0_bn/moving_mean", "shape": [1504], "dtype": "float32"}, {"name": "conv5_block20_0_bn/moving_variance", "shape": [1504], "dtype": "float32"}, {"name": "conv5_block20_1_bn/gamma", "shape": [128], "dtype": "float32"}, {"name": "conv5_block20_1_bn/beta", "shape": [128], "dtype": "float32"}, {"name": "conv5_block20_1_bn/moving_mean", "shape": [128], "dtype": "float32"}, {"name": "conv5_block20_1_bn/moving_variance", "shape": [128], "dtype": "float32"}, {"name": "conv5_block20_1_conv/kernel", "shape": [1, 1, 1504, 128], "dtype": "float32"}, {"name": "conv5_block20_2_conv/kernel", "shape": [3, 3, 128, 32], "dtype": "float32"}, {"name": "conv5_block21_0_bn/gamma", "shape": [1536], "dtype": "float32"}, {"name": "conv5_block21_0_bn/beta", "shape": [1536], "dtype": "float32"}, {"name": "conv5_block21_0_bn/moving_mean", "shape": [1536], "dtype": "float32"}, {"name": "conv5_block21_0_bn/moving_variance", "shape": [1536], "dtype": "float32"}, {"name": "conv5_block21_1_bn/gamma", "shape": [128], "dtype": "float32"}, {"name": "conv5_block21_1_bn/beta", "shape": [128], "dtype": "float32"}, {"name": "conv5_block21_1_bn/moving_mean", "shape": [128], "dtype": "float32"}, {"name": "conv5_block21_1_bn/moving_variance", "shape": [128], "dtype": "float32"}, {"name": "conv5_block21_1_conv/kernel", "shape": [1, 1, 1536, 128], "dtype": "float32"}, {"name": "conv5_block21_2_conv/kernel", "shape": [3, 3, 128, 32], "dtype": "float32"}, {"name": "conv5_block22_0_bn/gamma", "shape": [1568], "dtype": "float32"}, {"name": "conv5_block22_0_bn/beta", "shape": [1568], "dtype": "float32"}, {"name": "conv5_block22_0_bn/moving_mean", "shape": [1568], "dtype": "float32"}, {"name": "conv5_block22_0_bn/moving_variance", "shape": [1568], "dtype": "float32"}, {"name": "conv5_block22_1_bn/gamma", "shape": [128], "dtype": "float32"}, {"name": "conv5_block22_1_bn/beta", "shape": [128], "dtype": "float32"}, {"name": "conv5_block22_1_bn/moving_mean", "shape": [128], "dtype": "float32"}, {"name": "conv5_block22_1_bn/moving_variance", "shape": [128], "dtype": "float32"}, {"name": "conv5_block22_1_conv/kernel", "shape": [1, 1, 1568, 128], "dtype": "float32"}, {"name": "conv5_block22_2_conv/kernel", "shape": [3, 3, 128, 32], "dtype": "float32"}, {"name": "conv5_block23_0_bn/gamma", "shape": [1600], "dtype": "float32"}, {"name": "conv5_block23_0_bn/beta", "shape": [1600], "dtype": "float32"}, {"name": "conv5_block23_0_bn/moving_mean", "shape": [1600], "dtype": "float32"}, {"name": "conv5_block23_0_bn/moving_variance", "shape": [1600], "dtype": "float32"}, {"name": "conv5_block23_1_bn/gamma", "shape": [128], "dtype": "float32"}, {"name": "conv5_block23_1_bn/beta", "shape": [128], "dtype": "float32"}, {"name": "conv5_block23_1_bn/moving_mean", "shape": [128], "dtype": "float32"}, {"name": "conv5_block23_1_bn/moving_variance", "shape": [128], "dtype": "float32"}, {"name": "conv5_block23_1_conv/kernel", "shape": [1, 1, 1600, 128], "dtype": "float32"}, {"name": "conv5_block23_2_conv/kernel", "shape": [3, 3, 128, 32], "dtype": "float32"}, {"name": "conv5_block24_0_bn/gamma", "shape": [1632], "dtype": "float32"}, {"name": "conv5_block24_0_bn/beta", "shape": [1632], "dtype": "float32"}, {"name": "conv5_block24_0_bn/moving_mean", "shape": [1632], "dtype": "float32"}, {"name": "conv5_block24_0_bn/moving_variance", "shape": [1632], "dtype": "float32"}, {"name": "conv5_block24_1_bn/gamma", "shape": [128], "dtype": "float32"}, {"name": "conv5_block24_1_bn/beta", "shape": [128], "dtype": "float32"}, {"name": "conv5_block24_1_bn/moving_mean", "shape": [128], "dtype": "float32"}, {"name": "conv5_block24_1_bn/moving_variance", "shape": [128], "dtype": "float32"}, {"name": "conv5_block24_1_conv/kernel", "shape": [1, 1, 1632, 128], "dtype": "float32"}, {"name": "conv5_block24_2_conv/kernel", "shape": [3, 3, 128, 32], "dtype": "float32"}, {"name": "conv5_block25_0_bn/gamma", "shape": [1664], "dtype": "float32"}, {"name": "conv5_block25_0_bn/beta", "shape": [1664], "dtype": "float32"}, {"name": "conv5_block25_0_bn/moving_mean", "shape": [1664], "dtype": "float32"}, {"name": "conv5_block25_0_bn/moving_variance", "shape": [1664], "dtype": "float32"}, {"name": "conv5_block25_1_bn/gamma", "shape": [128], "dtype": "float32"}, {"name": "conv5_block25_1_bn/beta", "shape": [128], "dtype": "float32"}, {"name": "conv5_block25_1_bn/moving_mean", "shape": [128], "dtype": "float32"}, {"name": "conv5_block25_1_bn/moving_variance", "shape": [128], "dtype": "float32"}, {"name": "conv5_block25_1_conv/kernel", "shape": [1, 1, 1664, 128], "dtype": "float32"}, {"name": "conv5_block25_2_conv/kernel", "shape": [3, 3, 128, 32], "dtype": "float32"}, {"name": "conv5_block26_0_bn/gamma", "shape": [1696], "dtype": "float32"}, {"name": "conv5_block26_0_bn/beta", "shape": [1696], "dtype": "float32"}, {"name": "conv5_block26_0_bn/moving_mean", "shape": [1696], "dtype": "float32"}, {"name": "conv5_block26_0_bn/moving_variance", "shape": [1696], "dtype": "float32"}, {"name": "conv5_block26_1_bn/gamma", "shape": [128], "dtype": "float32"}, {"name": "conv5_block26_1_bn/beta", "shape": [128], "dtype": "float32"}, {"name": "conv5_block26_1_bn/moving_mean", "shape": [128], "dtype": "float32"}, {"name": "conv5_block26_1_bn/moving_variance", "shape": [128], "dtype": "float32"}, {"name": "conv5_block26_1_conv/kernel", "shape": [1, 1, 1696, 128], "dtype": "float32"}, {"name": "conv5_block26_2_conv/kernel", "shape": [3, 3, 128, 32], "dtype": "float32"}, {"name": "conv5_block27_0_bn/gamma", "shape": [1728], "dtype": "float32"}, {"name": "conv5_block27_0_bn/beta", "shape": [1728], "dtype": "float32"}, {"name": "conv5_block27_0_bn/moving_mean", "shape": [1728], "dtype": "float32"}, {"name": "conv5_block27_0_bn/moving_variance", "shape": [1728], "dtype": "float32"}, {"name": "conv5_block27_1_bn/gamma", "shape": [128], "dtype": "float32"}, {"name": "conv5_block27_1_bn/beta", "shape": [128], "dtype": "float32"}, {"name": "conv5_block27_1_bn/moving_mean", "shape": [128], "dtype": "float32"}, {"name": "conv5_block27_1_bn/moving_variance", "shape": [128], "dtype": "float32"}, {"name": "conv5_block27_1_conv/kernel", "shape": [1, 1, 1728, 128], "dtype": "float32"}, {"name": "conv5_block27_2_conv/kernel", "shape": [3, 3, 128, 32], "dtype": "float32"}, {"name": "conv5_block28_0_bn/gamma", "shape": [1760], "dtype": "float32"}, {"name": "conv5_block28_0_bn/beta", "shape": [1760], "dtype": "float32"}, {"name": "conv5_block28_0_bn/moving_mean", "shape": [1760], "dtype": "float32"}, {"name": "conv5_block28_0_bn/moving_variance", "shape": [1760], "dtype": "float32"}, {"name": "conv5_block28_1_bn/gamma", "shape": [128], "dtype": "float32"}, {"name": "conv5_block28_1_bn/beta", "shape": [128], "dtype": "float32"}, {"name": "conv5_block28_1_bn/moving_mean", "shape": [128], "dtype": "float32"}, {"name": "conv5_block28_1_bn/moving_variance", "shape": [128], "dtype": "float32"}, {"name": "conv5_block28_1_conv/kernel", "shape": [1, 1, 1760, 128], "dtype": "float32"}, {"name": "conv5_block28_2_conv/kernel", "shape": [3, 3, 128, 32], "dtype": "float32"}, {"name": "conv5_block29_0_bn/gamma", "shape": [1792], "dtype": "float32"}, {"name": "conv5_block29_0_bn/beta", "shape": [1792], "dtype": "float32"}, {"name": "conv5_block29_0_bn/moving_mean", "shape": [1792], "dtype": "float32"}, {"name": "conv5_block29_0_bn/moving_variance", "shape": [1792], "dtype": "float32"}, {"name": "conv5_block29_1_bn/gamma", "shape": [128], "dtype": "float32"}, {"name": "conv5_block29_1_bn/beta", "shape": [128], "dtype": "float32"}, {"name": "conv5_block29_1_bn/moving_mean", "shape": [128], "dtype": "float32"}, {"name": "conv5_block29_1_bn/moving_variance", "shape": [128], "dtype": "float32"}, {"name": "conv5_block29_1_conv/kernel", "shape": [1, 1, 1792, 128], "dtype": "float32"}, {"name": "conv5_block29_2_conv/kernel", "shape": [3, 3, 128, 32], "dtype": "float32"}, {"name": "conv5_block2_0_bn/gamma", "shape": [928], "dtype": "float32"}, {"name": "conv5_block2_0_bn/beta", "shape": [928], "dtype": "float32"}, {"name": "conv5_block2_0_bn/moving_mean", "shape": [928], "dtype": "float32"}, {"name": "conv5_block2_0_bn/moving_variance", "shape": [928], "dtype": "float32"}, {"name": "conv5_block2_1_bn/gamma", "shape": [128], "dtype": "float32"}, {"name": "conv5_block2_1_bn/beta", "shape": [128], "dtype": "float32"}, {"name": "conv5_block2_1_bn/moving_mean", "shape": [128], "dtype": "float32"}, {"name": "conv5_block2_1_bn/moving_variance", "shape": [128], "dtype": "float32"}, {"name": "conv5_block2_1_conv/kernel", "shape": [1, 1, 928, 128], "dtype": "float32"}, {"name": "conv5_block2_2_conv/kernel", "shape": [3, 3, 128, 32], "dtype": "float32"}, {"name": "conv5_block30_0_bn/gamma", "shape": [1824], "dtype": "float32"}, {"name": "conv5_block30_0_bn/beta", "shape": [1824], "dtype": "float32"}, {"name": "conv5_block30_0_bn/moving_mean", "shape": [1824], "dtype": "float32"}, {"name": "conv5_block30_0_bn/moving_variance", "shape": [1824], "dtype": "float32"}, {"name": "conv5_block30_1_bn/gamma", "shape": [128], "dtype": "float32"}, {"name": "conv5_block30_1_bn/beta", "shape": [128], "dtype": "float32"}, {"name": "conv5_block30_1_bn/moving_mean", "shape": [128], "dtype": "float32"}, {"name": "conv5_block30_1_bn/moving_variance", "shape": [128], "dtype": "float32"}, {"name": "conv5_block30_1_conv/kernel", "shape": [1, 1, 1824, 128], "dtype": "float32"}, {"name": "conv5_block30_2_conv/kernel", "shape": [3, 3, 128, 32], "dtype": "float32"}, {"name": "conv5_block31_0_bn/gamma", "shape": [1856], "dtype": "float32"}, {"name": "conv5_block31_0_bn/beta", "shape": [1856], "dtype": "float32"}, {"name": "conv5_block31_0_bn/moving_mean", "shape": [1856], "dtype": "float32"}, {"name": "conv5_block31_0_bn/moving_variance", "shape": [1856], "dtype": "float32"}, {"name": "conv5_block31_1_bn/gamma", "shape": [128], "dtype": "float32"}, {"name": "conv5_block31_1_bn/beta", "shape": [128], "dtype": "float32"}, {"name": "conv5_block31_1_bn/moving_mean", "shape": [128], "dtype": "float32"}, {"name": "conv5_block31_1_bn/moving_variance", "shape": [128], "dtype": "float32"}, {"name": "conv5_block31_1_conv/kernel", "shape": [1, 1, 1856, 128], "dtype": "float32"}, {"name": "conv5_block31_2_conv/kernel", "shape": [3, 3, 128, 32], "dtype": "float32"}, {"name": "conv5_block32_0_bn/gamma", "shape": [1888], "dtype": "float32"}, {"name": "conv5_block32_0_bn/beta", "shape": [1888], "dtype": "float32"}, {"name": "conv5_block32_0_bn/moving_mean", "shape": [1888], "dtype": "float32"}, {"name": "conv5_block32_0_bn/moving_variance", "shape": [1888], "dtype": "float32"}, {"name": "conv5_block32_1_bn/gamma", "shape": [128], "dtype": "float32"}, {"name": "conv5_block32_1_bn/beta", "shape": [128], "dtype": "float32"}, {"name": "conv5_block32_1_bn/moving_mean", "shape": [128], "dtype": "float32"}, {"name": "conv5_block32_1_bn/moving_variance", "shape": [128], "dtype": "float32"}, {"name": "conv5_block32_1_conv/kernel", "shape": [1, 1, 1888, 128], "dtype": "float32"}, {"name": "conv5_block32_2_conv/kernel", "shape": [3, 3, 128, 32], "dtype": "float32"}, {"name": "conv5_block3_0_bn/gamma", "shape": [960], "dtype": "float32"}, {"name": "conv5_block3_0_bn/beta", "shape": [960], "dtype": "float32"}, {"name": "conv5_block3_0_bn/moving_mean", "shape": [960], "dtype": "float32"}, {"name": "conv5_block3_0_bn/moving_variance", "shape": [960], "dtype": "float32"}, {"name": "conv5_block3_1_bn/gamma", "shape": [128], "dtype": "float32"}, {"name": "conv5_block3_1_bn/beta", "shape": [128], "dtype": "float32"}, {"name": "conv5_block3_1_bn/moving_mean", "shape": [128], "dtype": "float32"}, {"name": "conv5_block3_1_bn/moving_variance", "shape": [128], "dtype": "float32"}, {"name": "conv5_block3_1_conv/kernel", "shape": [1, 1, 960, 128], "dtype": "float32"}, {"name": "conv5_block3_2_conv/kernel", "shape": [3, 3, 128, 32], "dtype": "float32"}, {"name": "conv5_block4_0_bn/gamma", "shape": [992], "dtype": "float32"}, {"name": "conv5_block4_0_bn/beta", "shape": [992], "dtype": "float32"}, {"name": "conv5_block4_0_bn/moving_mean", "shape": [992], "dtype": "float32"}, {"name": "conv5_block4_0_bn/moving_variance", "shape": [992], "dtype": "float32"}, {"name": "conv5_block4_1_bn/gamma", "shape": [128], "dtype": "float32"}, {"name": "conv5_block4_1_bn/beta", "shape": [128], "dtype": "float32"}, {"name": "conv5_block4_1_bn/moving_mean", "shape": [128], "dtype": "float32"}, {"name": "conv5_block4_1_bn/moving_variance", "shape": [128], "dtype": "float32"}, {"name": "conv5_block4_1_conv/kernel", "shape": [1, 1, 992, 128], "dtype": "float32"}, {"name": "conv5_block4_2_conv/kernel", "shape": [3, 3, 128, 32], "dtype": "float32"}, {"name": "conv5_block5_0_bn/gamma", "shape": [1024], "dtype": "float32"}, {"name": "conv5_block5_0_bn/beta", "shape": [1024], "dtype": "float32"}, {"name": "conv5_block5_0_bn/moving_mean", "shape": [1024], "dtype": "float32"}, {"name": "conv5_block5_0_bn/moving_variance", "shape": [1024], "dtype": "float32"}, {"name": "conv5_block5_1_bn/gamma", "shape": [128], "dtype": "float32"}, {"name": "conv5_block5_1_bn/beta", "shape": [128], "dtype": "float32"}, {"name": "conv5_block5_1_bn/moving_mean", "shape": [128], "dtype": "float32"}, {"name": "conv5_block5_1_bn/moving_variance", "shape": [128], "dtype": "float32"}, {"name": "conv5_block5_1_conv/kernel", "shape": [1, 1, 1024, 128], "dtype": "float32"}, {"name": "conv5_block5_2_conv/kernel", "shape": [3, 3, 128, 32], "dtype": "float32"}, {"name": "conv5_block6_0_bn/gamma", "shape": [1056], "dtype": "float32"}, {"name": "conv5_block6_0_bn/beta", "shape": [1056], "dtype": "float32"}, {"name": "conv5_block6_0_bn/moving_mean", "shape": [1056], "dtype": "float32"}, {"name": "conv5_block6_0_bn/moving_variance", "shape": [1056], "dtype": "float32"}, {"name": "conv5_block6_1_bn/gamma", "shape": [128], "dtype": "float32"}, {"name": "conv5_block6_1_bn/beta", "shape": [128], "dtype": "float32"}, {"name": "conv5_block6_1_bn/moving_mean", "shape": [128], "dtype": "float32"}, {"name": "conv5_block6_1_bn/moving_variance", "shape": [128], "dtype": "float32"}, {"name": "conv5_block6_1_conv/kernel", "shape": [1, 1, 1056, 128], "dtype": "float32"}, {"name": "conv5_block6_2_conv/kernel", "shape": [3, 3, 128, 32], "dtype": "float32"}, {"name": "conv5_block7_0_bn/gamma", "shape": [1088], "dtype": "float32"}, {"name": "conv5_block7_0_bn/beta", "shape": [1088], "dtype": "float32"}, {"name": "conv5_block7_0_bn/moving_mean", "shape": [1088], "dtype": "float32"}, {"name": "conv5_block7_0_bn/moving_variance", "shape": [1088], "dtype": "float32"}, {"name": "conv5_block7_1_bn/gamma", "shape": [128], "dtype": "float32"}, {"name": "conv5_block7_1_bn/beta", "shape": [128], "dtype": "float32"}, {"name": "conv5_block7_1_bn/moving_mean", "shape": [128], "dtype": "float32"}, {"name": "conv5_block7_1_bn/moving_variance", "shape": [128], "dtype": "float32"}, {"name": "conv5_block7_1_conv/kernel", "shape": [1, 1, 1088, 128], "dtype": "float32"}, {"name": "conv5_block7_2_conv/kernel", "shape": [3, 3, 128, 32], "dtype": "float32"}, {"name": "conv5_block8_0_bn/gamma", "shape": [1120], "dtype": "float32"}, {"name": "conv5_block8_0_bn/beta", "shape": [1120], "dtype": "float32"}, {"name": "conv5_block8_0_bn/moving_mean", "shape": [1120], "dtype": "float32"}, {"name": "conv5_block8_0_bn/moving_variance", "shape": [1120], "dtype": "float32"}, {"name": "conv5_block8_1_bn/gamma", "shape": [128], "dtype": "float32"}, {"name": "conv5_block8_1_bn/beta", "shape": [128], "dtype": "float32"}, {"name": "conv5_block8_1_bn/moving_mean", "shape": [128], "dtype": "float32"}, {"name": "conv5_block8_1_bn/moving_variance", "shape": [128], "dtype": "float32"}, {"name": "conv5_block8_1_conv/kernel", "shape": [1, 1, 1120, 128], "dtype": "float32"}, {"name": "conv5_block8_2_conv/kernel", "shape": [3, 3, 128, 32], "dtype": "float32"}, {"name": "conv5_block9_0_bn/gamma", "shape": [1152], "dtype": "float32"}, {"name": "conv5_block9_0_bn/beta", "shape": [1152], "dtype": "float32"}, {"name": "conv5_block9_0_bn/moving_mean", "shape": [1152], "dtype": "float32"}, {"name": "conv5_block9_0_bn/moving_variance", "shape": [1152], "dtype": "float32"}, {"name": "conv5_block9_1_bn/gamma", "shape": [128], "dtype": "float32"}, {"name": "conv5_block9_1_bn/beta", "shape": [128], "dtype": "float32"}, {"name": "conv5_block9_1_bn/moving_mean", "shape": [128], "dtype": "float32"}, {"name": "conv5_block9_1_bn/moving_variance", "shape": [128], "dtype": "float32"}, {"name": "conv5_block9_1_conv/kernel", "shape": [1, 1, 1152, 128], "dtype": "float32"}, {"name": "conv5_block9_2_conv/kernel", "shape": [3, 3, 128, 32], "dtype": "float32"}, {"name": "dense_3/kernel", "shape": [128, 11], "dtype": "float32"}, {"name": "dense_3/bias", "shape": [11], "dtype": "float32"}, {"name": "pool2_bn/gamma", "shape": [256], "dtype": "float32"}, {"name": "pool2_bn/beta", "shape": [256], "dtype": "float32"}, {"name": "pool2_bn/moving_mean", "shape": [256], "dtype": "float32"}, {"name": "pool2_bn/moving_variance", "shape": [256], "dtype": "float32"}, {"name": "pool2_conv/kernel", "shape": [1, 1, 256, 128], "dtype": "float32"}, {"name": "pool3_bn/gamma", "shape": [512], "dtype": "float32"}, {"name": "pool3_bn/beta", "shape": [512], "dtype": "float32"}, {"name": "pool3_bn/moving_mean", "shape": [512], "dtype": "float32"}, {"name": "pool3_bn/moving_variance", "shape": [512], "dtype": "float32"}, {"name": "pool3_conv/kernel", "shape": [1, 1, 512, 256], "dtype": "float32"}, {"name": "pool4_bn/gamma", "shape": [1792], "dtype": "float32"}, {"name": "pool4_bn/beta", "shape": [1792], "dtype": "float32"}, {"name": "pool4_bn/moving_mean", "shape": [1792], "dtype": "float32"}, {"name": "pool4_bn/moving_variance", "shape": [1792], "dtype": "float32"}, {"name": "pool4_conv/kernel", "shape": [1, 1, 1792, 896], "dtype": "float32"}, {"name": "dense/kernel", "shape": [1920, 1024], "dtype": "float32"}, {"name": "dense/bias", "shape": [1024], "dtype": "float32"}, {"name": "dense_1/kernel", "shape": [1024, 512], "dtype": "float32"}, {"name": "dense_1/bias", "shape": [512], "dtype": "float32"}, {"name": "dense_2/kernel", "shape": [512, 128], "dtype": "float32"}, {"name": "dense_2/bias", "shape": [128], "dtype": "float32"}]}]}